src/lightning_logs/version_35/checkpoints/epoch=22-step=36799.ckpt (torch, 707991 bytes, 24 tensors)

cnv.weight f4 [128, 3, 5, 5]
-0.08107529 0.025192244 0.033153772 -0.084199056 0.08065369 -0.007799899 0.049001645 -0.007978391
-0.04033094 0.082614966 0.0802667 -0.055648718 0.10466157 0.08370944 0.1111243 -0.0911608
-0.06557784 0.104209416 -0.109015845 0.0011275547 -0.0127852205 -0.07608564 -0.107733116 0.015133327
0.050425343 -0.05371764 -0.10518963 -0.06692297 0.096139155 -0.033869643 0.03523306 0.0032884418
-0.079688065 0.011356168 -0.10676356 -0.025057277 -0.023886954 -0.055601932 0.05719634 -0.09467182
-0.072919615 -0.10986826 0.026855262 0.03149205 -0.07691543 -0.111812115 0.023914278 -0.029177861
0.03317508 -0.05885234 0.047600742 0.03910927 -0.05459098 0.014641651 -0.037849024 -0.07345421
-0.040198352 -0.05838266 -0.05261157 -0.0245305 -0.06788365 -0.014044301 -0.09438641 -0.056559514
0.02930863 -0.065989465 0.09047631 0.08908831 0.06886952 0.10578086 0.080450885 -0.107259154
0.018233929 0.04477013 -0.09253994 -0.0057616727 -0.0058133197 -0.081867024 -0.015065905 0.06511404
0.019921118 -0.053982303 0.10388545 -0.05158139 -0.1024321 0.10813167 0.0025990303 -0.05230501
0.104579516 0.048224524 -0.09005334 -0.10756534 0.0025701926 0.06933894 0.061819036 0.066525556
0.1069721 0.007236934 0.088663 -0.09172828 -0.043362826 -0.0750748 0.09117822 0.07608153
-0.0775576 0.065232255 -0.11379944 0.0393624 -0.09097561 -0.1041429 -0.009244395 0.020761726
-0.03976734 -0.04230129 -0.114563964 -0.11528184 -0.07193122 -0.015191677 0.062495027 -0.007981832
-0.10783198 -0.022002608 -0.076284066 -0.11083826 0.06950237 0.05461342 -0.06257957 0.023852156
0.09995576 -0.015236165 -0.113832265 0.017640391 0.014322369 0.08753343 -0.04381782 -0.0031690295
0.045384135 -0.07536065 -0.007407112 0.011536229 -0.030421084 -0.07476521 -0.032933258 0.030882407
0.05371197 0.058750864 0.030580938 -0.0116037475 -0.027299393 -0.09376215 -0.041887265 0.06450635
-0.03466123 -0.0779577 -0.048477624 0.11324788 -0.00026161954 0.06812256 0.07579706 -0.034401856
0.06599369 0.10062443 0.040611073 0.11224952 -0.049650438 -0.04845597 0.016098205 -0.0076108356
-0.04754764 -0.047603622 -0.07627062 -0.09325016 -0.11360425 0.039620318 -0.03831303 -0.10476404
-0.10244043 -0.037714593 0.01737558 -0.07022021 -0.042428244 0.062468268 -0.027764253 0.02962509
-0.028899545 0.111756615 -0.04670539 0.07102576 0.016032133 0.082365766 0.11341682 -0.082756996
0.038989764 0.020245768 0.05901803 -0.022832712 0.101187 -0.06445994 0.058882732 -0.10593431
0.099898085 0.015935859 -0.049180742 0.054200064 0.074592 0.041444536 0.04804584 -0.031836715
0.11067678 -0.077518106 -0.08882632 0.007980277 -0.10570484 0.009829315 -0.1073599 0.08300608
0.0735869 -0.027433794 0.026029438 0.014495452 -0.057393856 -0.091283076 -0.014812903 0.026804825
0.0026609732 0.07893305 -0.09651864 0.02964553 0.08779139 0.053770732 0.05880503 -0.04470392
0.029482014 0.048840307 -0.041664105 -0.07620559 -0.08221586 0.082315326 0.06845132 0.115003265
0.0802183 -0.025345325 0.10832826 0.108523466 0.028198542 0.037619997 0.0132933725 0.026849192
0.110672735 -0.002183159 -0.06421465 -0.08836267 0.031471938 0.03729137 0.008084038 -0.006434263
00000000: cd0a a6bd f75f ce3c 40cc 073d 8e70 acbd
00000010: c32d a53d 4c96 ffbb f3b5 483d ccb7 02bc
00000020: 0e32 25bd 0932 a93d de62 a43d e9ef 63bd
00000030: ce58 d63d db6f ab3d 2395 e33d 83b2 babd
00000040: ad4d 86bd bf6b d53d b343 dfbd 75ca 933a
00000050: 1a79 51bc cad2 9bbd 2ea3 dcbd c6f1 773c
00000060: ce8a 4e3d 0707 5cbd a96d d7bd e90e 89bd
00000070: 9be4 c43d e5ba 0abd 8b50 103d e682 573b
00000080: 7f33 a3bd 390f 3a3c daa6 dabd eb44 cdbc
00000090: 93ae c3bc dabe 63bd b646 6a3d 4de3 c1bd
000000a0: e156 95bd 9c02 e1bd 91ff db3c cffd 003d
000000b0: d685 9dbd c0fd e4bd e0e7 c33c 6906 efbc
000000c0: 98e2 073d 270f 71bd fff8 423d 0b31 203d
000000d0: cb9a 5fbd 89e3 6f3c 9407 1bbd 296f 96bd
000000e0: 07a7 24bd a822 6fbd 3b7f 57bd 30f4 c8bc
000000f0: 9506 8bbd 111a 66bc aa4d c1bd f3aa 67bd
00000100: a718 f03c 7c25 87bd a54b b93d ef73 b63d
00000110: 770b 8d3d a3a3 d83d 6fc3 a43d b0aa dbbd
00000120: 525f 953c e260 373d 9485 bdbd 6acc bcbb
00000130: a97d bebb e6a9 a7bd fcd6 76bc 835a 853d
00000140: 9d31 a33c 8c1c 5dbd e5c1 d43d 0247 53bd
00000150: ecc7 d1bd 2374 dd3d 7e54 2a3b c73d 56bd
00000160: c92d d63d 1487 453d e36d b8bd 384b dcbd
00000170: ad70 283b 9301 8e3d f535 7d3d 8d3e 883d
00000180: 3014 db3d cd23 ed3b f294 b53d 09dc bbbd
00000190: 389d 31bd d1c0 99bd a6bb ba3d a2d0 9b3d
000001a0: 85d6 9ebd 7d98 853d ae0f e9bd 783a 213d
000001b0: 6c51 babd df48 d5bd ce75 17bc 7f14 aa3c
000001c0: 14e3 22bd 1e44 2dbd 83a0 eabd e318 ecbd
000001d0: ad50 93bd 83e6 78bc c9fa 7f3d 3bc6 02bc
000001e0: 03d7 dcbd d03e b4bc d23a 9cbd 2bff e2bd
000001f0: 4257 8e3d 52b2 5f3d b829 80bd 9965 c33c
00000200: 9bb5 cc3d 1ca1 79bc e420 e9bd 9582 903c
00000210: 5fa8 6a3c ba44 b33d 507a 33bd 7eaf 4fbb
00000220: b7e4 393d af56 9abd 5cb7 f2bb 7402 3d3c
00000230: a335 f9bc 811e 99bd 06e5 06bd 1afd fc3c
00000240: 1501 5c3d bfa4 703d e084 fa3c a51d 3ebc
00000250: faa2 dfbc 5f06 c0bd fb91 2bbd e81b 843d
00000260: eff8 0dbd 49a8 9fbd 7990 46bd 81ee e73d
00000270: fb29 89b9 d783 8b3d 7d3b 9b3d f6e8 0cbd
00000280: b327 873d 2e14 ce3d cc57 263d 14e3 e53d
00000290: 425e 4bbd c479 46bd 62e0 833c 5164 f9bb
000002a0: 50c1 42bd 04fc 42bd c533 9cbd f1f9 bebd
000002b0: 58a9 e8bd ea48 223d 20ee 1cbd 878e d6bd
000002c0: 4acc d1bd 9e7a 1abd 3b57 8e3c 9dcf 8fbd
000002d0: 3dc9 2dbd bade 7f3d dc71 e3bc 51b0 f23c
000002e0: bdbe ecbc a7e0 e43d 274e 3fbd f475 913d
000002f0: d255 833c 62af a83d 1447 e83d 807c a9bd
00000300: bbb3 1f3d 74da a53c e4bc 713d ab0b bbbc
00000310: 213b cf3d 9303 84bd 052f 713d 16f4 d8bd
00000320: 5e97 cc3d eb8b 823c bf71 49bd e300 5e3d
00000330: b1c3 983d bfc1 293d b7cb 443d 3767 02bd
00000340: 82aa e23d d0c1 9ebd 93ea b5bd b5bf 023c
00000350: c77b d8bd 230b 213c 82df dbbd 17ff a93d
00000360: bbb4 963d d6bc e0bc b03b d53c 557e 6d3c
00000370: d215 6bbd 9ff2 babd d1b1 72bc cb95 db3c
00000380: b963 2e3b a7a7 a13d 91ab c5bd 2fdb f23c
00000390: f9cb b33d b33e 5c3d 8bdd 703d 751b 37bd
000003a0: 4484 f13c c60c 483d fba7 2abd ad11 9cbd
000003b0: ca60 a8bd f094 a83d 3530 8c3d d586 eb3d
000003c0: 7e49 a43d 00a1 cfbc 35db dd3d 8d41 de3d
000003d0: a100 e73c 6d17 1a3d 72cc 593c d6f2 db3c
000003e0: 63a8 e23d 5513 0fbb f882 83bd 7df7 b4bd
000003f0: b8e8 003d d6be 183d ea72 043c 83d6 d2bb

cnv.bias f4 [128]
-0.017036146 0.08931235 0.04859325 0.10595202 -0.09123669 0.015413529 0.036681905 -0.056921866
0.1046521 0.0069180103 -0.06955034 -0.026780503 0.042944312 0.075790025 0.018690228 0.06978818
-0.103353925 0.028879957 0.09175132 -0.056118123 0.073078364 -0.071834 -0.024863025 -0.010310144
0.0005138788 -0.04212562 0.053053997 -0.049458303 -0.06735163 -0.03900368 0.107540846 -0.031016327
0.09763813 -0.010837431 0.09585551 0.0382481 0.029168308 -0.037847467 -0.070279725 -0.005102779
-0.03222094 -0.114427015 -0.07411188 0.01605687 -0.049388185 -0.01933474 -0.0889929 -0.102715515
-0.09775414 0.017952172 -0.05512461 -0.0882043 -0.1094578 0.10884722 0.11338812 0.020957755
0.014344421 -0.0041406117 -0.0700572 0.019417949 -0.06169767 0.088885196 -0.017922288 0.061992366
-0.04989913 -0.05534199 -0.072295226 0.103848904 0.08994935 0.08302677 -0.0055204257 -0.08610293
-0.08385538 0.0363535 0.033104233 -0.07325442 0.0010849378 -0.053027388 -0.096629 -0.085707575
0.025757026 -0.11341635 0.033568434 -0.02317512 0.033447728 0.11250591 -0.017818402 -0.04975691
0.05129041 0.023707554 -0.11317812 0.0070723724 0.020200124 0.05804671 0.0463728 -0.096333295
0.09276922 0.054809254 0.022055892 0.10263624 0.1042339 -0.03936895 -0.10546446 -0.07416504
-0.010394663 -0.03312309 0.024255846 -0.02485405 -0.047270134 -0.059267234 -0.080239855 0.051712614
0.015378401 -0.03629995 0.106827244 0.061953522 -0.05111042 0.10433666 -0.07426013 -0.09991097
0.07978405 -0.03221849 0.10713444 -0.07037641 -0.112869576 -0.0030534577 -0.025924534 -0.11199764
00000000: 638f 8bbc 65e9 b63d b709 473d 5ffd d83d
00000010: 4dda babd 0789 7c3c c43f 163d e726 69bd
00000020: d753 d63d 7ab0 e23b 6970 8ebd c962 dbbc
00000030: 60e6 2f3d cd37 9b3d 401c 993c 1bed 8e3d
00000040: 39ab d3bd a995 ec3c 1ee8 bb3d 1edc 65bd
00000050: 1caa 953d b41d 93bd 8bad cbbc e1eb 28bc
00000060: d3b5 063a ea8b 2cbd 264f 593d ca94 4abd
00000070: a7ef 89bd 53c2 1fbd 603e dc3d f415 febc
00000080: 80f6 c73d 7b8f 31bc e54f c43d 0aaa 1c3d
00000090: 60f2 ee3c f205 1bbd d1ee 8fbd 3635 a7bb
000000a0: 1bfa 03bd b658 eabd f8c7 97bd b289 833c
000000b0: 444b 4abd e363 9ebc e941 b6bd 835c d2bd
000000c0: 5333 c8bd 6f10 933c 58ca 61bd 75a4 b4bd
000000d0: 692b e0bd 4beb de3d 0838 e83d 99af ab3c
000000e0: dd04 6b3c f8ad 87bb 267a 8fbd 6412 9f3c
000000f0: b2b6 7cbd 7109 b63d c3d1 92bc b5eb 7d3d
00000100: 0863 4cbd 48ae 62bd 850f 94bd bcae d43d
00000110: 5d37 b83d f009 aa3d b0e4 b4bb bc56 b0bd
00000120: 5fbc abbd 68e7 143d 4e98 073d 6a06 96bd
00000130: 7934 8e3a 3f33 59bd 6de5 c5bd 7487 afbd
00000140: 6600 d33c d546 e8bd 0e7f 093d c0d9 bdbc
00000150: 7c00 093d 8069 e63d e6f7 91bc e7cd 4bbd
00000160: e515 523d 5836 c23c eec9 e7bd 5cbf e73b
00000170: bb7a a53c 63c2 6d3d 68f1 3d3d 644a c5bd
00000180: cafd bd3d ab7f 603d 8fae b43c f332 d23d
00000190: 9578 d53d 5641 21bd c0fd d7bd d7e3 97bd
000001a0: 604e 2abc 14ac 07bd 32b4 c63c b89a cbbc
000001b0: 549e 41bd 33c2 72bd cb54 a4bd 9bd0 533d
000001c0: b0f5 7b3c 42af 14bd 3ec8 da3d fac2 7d3d
000001d0: 2959 51bd 75ae d53d b215 98bd 1f9e ccbd
000001e0: d265 a33d 89f7 03bd 4d69 db3d 8221 90bd
000001f0: 2a28 e7bd 851c 48bb b05f d4bc 055f e5bd

bn.weight f4 [128]
1.0 1.0 1.0 1.0 1.0 1.0 1.0 1.0
1.0 1.0 1.0 1.0 1.0 1.0 1.0 1.0
1.0 1.0 1.0 1.0 1.0 1.0 1.0 1.0
1.0 1.0 1.0 1.0 1.0 1.0 1.0 1.0
1.0 1.0 1.0 1.0 1.0 1.0 1.0 1.0
1.0 1.0 1.0 1.0 1.0 1.0 1.0 1.0
1.0 1.0 1.0 1.0 1.0 1.0 1.0 1.0
1.0 1.0 1.0 1.0 1.0 1.0 1.0 1.0
1.0 1.0 1.0 1.0 1.0 1.0 1.0 1.0
1.0 1.0 1.0 1.0 1.0 1.0 1.0 1.0
1.0 1.0 1.0 1.0 1.0 1.0 1.0 1.0
1.0 1.0 1.0 1.0 1.0 1.0 1.0 1.0
1.0 1.0 1.0 1.0 1.0 1.0 1.0 1.0
1.0 1.0 1.0 1.0 1.0 1.0 1.0 1.0
1.0 1.0 1.0 1.0 1.0 1.0 1.0 1.0
1.0 1.0 1.0 1.0 1.0 1.0 1.0 1.0
00000000: 0000 803f 0000 803f 0000 803f 0000 803f
00000010: 0000 803f 0000 803f 0000 803f 0000 803f
00000020: 0000 803f 0000 803f 0000 803f 0000 803f
00000030: 0000 803f 0000 803f 0000 803f 0000 803f
00000040: 0000 803f 0000 803f 0000 803f 0000 803f
00000050: 0000 803f 0000 803f 0000 803f 0000 803f
00000060: 0000 803f 0000 803f 0000 803f 0000 803f
00000070: 0000 803f 0000 803f 0000 803f 0000 803f
00000080: 0000 803f 0000 803f 0000 803f 0000 803f
00000090: 0000 803f 0000 803f 0000 803f 0000 803f
000000a0: 0000 803f 0000 803f 0000 803f 0000 803f
000000b0: 0000 803f 0000 803f 0000 803f 0000 803f
000000c0: 0000 803f 0000 803f 0000 803f 0000 803f
000000d0: 0000 803f 0000 803f 0000 803f 0000 803f
000000e0: 0000 803f 0000 803f 0000 803f 0000 803f
000000f0: 0000 803f 0000 803f 0000 803f 0000 803f
00000100: 0000 803f 0000 803f 0000 803f 0000 803f
00000110: 0000 803f 0000 803f 0000 803f 0000 803f
00000120: 0000 803f 0000 803f 0000 803f 0000 803f
00000130: 0000 803f 0000 803f 0000 803f 0000 803f
00000140: 0000 803f 0000 803f 0000 803f 0000 803f
00000150: 0000 803f 0000 803f 0000 803f 0000 803f
00000160: 0000 803f 0000 803f 0000 803f 0000 803f
00000170: 0000 803f 0000 803f 0000 803f 0000 803f
00000180: 0000 803f 0000 803f 0000 803f 0000 803f
00000190: 0000 803f 0000 803f 0000 803f 0000 803f
000001a0: 0000 803f 0000 803f 0000 803f 0000 803f
000001b0: 0000 803f 0000 803f 0000 803f 0000 803f
000001c0: 0000 803f 0000 803f 0000 803f 0000 803f
000001d0: 0000 803f 0000 803f 0000 803f 0000 803f
000001e0: 0000 803f 0000 803f 0000 803f 0000 803f
000001f0: 0000 803f 0000 803f 0000 803f 0000 803f

bn.bias f4 [128]
0.0 0.0 0.0 0.0 0.0 0.0 0.0 0.0
0.0 0.0 0.0 0.0 0.0 0.0 0.0 0.0
0.0 0.0 0.0 0.0 0.0 0.0 0.0 0.0
0.0 0.0 0.0 0.0 0.0 0.0 0.0 0.0
0.0 0.0 0.0 0.0 0.0 0.0 0.0 0.0
0.0 0.0 0.0 0.0 0.0 0.0 0.0 0.0
0.0 0.0 0.0 0.0 0.0 0.0 0.0 0.0
0.0 0.0 0.0 0.0 0.0 0.0 0.0 0.0
0.0 0.0 0.0 0.0 0.0 0.0 0.0 0.0
0.0 0.0 0.0 0.0 0.0 0.0 0.0 0.0
0.0 0.0 0.0 0.0 0.0 0.0 0.0 0.0
0.0 0.0 0.0 0.0 0.0 0.0 0.0 0.0
0.0 0.0 0.0 0.0 0.0 0.0 0.0 0.0
0.0 0.0 0.0 0.0 0.0 0.0 0.0 0.0
0.0 0.0 0.0 0.0 0.0 0.0 0.0 0.0
0.0 0.0 0.0 0.0 0.0 0.0 0.0 0.0
00000000: 0000 0000 0000 0000 0000 0000 0000 0000
00000010: 0000 0000 0000 0000 0000 0000 0000 0000
00000020: 0000 0000 0000 0000 0000 0000 0000 0000
00000030: 0000 0000 0000 0000 0000 0000 0000 0000
00000040: 0000 0000 0000 0000 0000 0000 0000 0000
00000050: 0000 0000 0000 0000 0000 0000 0000 0000
00000060: 0000 0000 0000 0000 0000 0000 0000 0000
00000070: 0000 0000 0000 0000 0000 0000 0000 0000
00000080: 0000 0000 0000 0000 0000 0000 0000 0000
00000090: 0000 0000 0000 0000 0000 0000 0000 0000
000000a0: 0000 0000 0000 0000 0000 0000 0000 0000
000000b0: 0000 0000 0000 0000 0000 0000 0000 0000
000000c0: 0000 0000 0000 0000 0000 0000 0000 0000
000000d0: 0000 0000 0000 0000 0000 0000 0000 0000
000000e0: 0000 0000 0000 0000 0000 0000 0000 0000
000000f0: 0000 0000 0000 0000 0000 0000 0000 0000
00000100: 0000 0000 0000 0000 0000 0000 0000 0000
00000110: 0000 0000 0000 0000 0000 0000 0000 0000
00000120: 0000 0000 0000 0000 0000 0000 0000 0000
00000130: 0000 0000 0000 0000 0000 0000 0000 0000
00000140: 0000 0000 0000 0000 0000 0000 0000 0000
00000150: 0000 0000 0000 0000 0000 0000 0000 0000
00000160: 0000 0000 0000 0000 0000 0000 0000 0000
00000170: 0000 0000 0000 0000 0000 0000 0000 0000
00000180: 0000 0000 0000 0000 0000 0000 0000 0000
00000190: 0000 0000 0000 0000 0000 0000 0000 0000
000001a0: 0000 0000 0000 0000 0000 0000 0000 0000
000001b0: 0000 0000 0000 0000 0000 0000 0000 0000
000001c0: 0000 0000 0000 0000 0000 0000 0000 0000
000001d0: 0000 0000 0000 0000 0000 0000 0000 0000
000001e0: 0000 0000 0000 0000 0000 0000 0000 0000
000001f0: 0000 0000 0000 0000 0000 0000 0000 0000

bn.running_mean f4 [128]
0.16135961 0.17824103 0.06959051 0.28017887 0.09928485 0.2544368 0.115442574 0.06607075
0.27183148 0.09586649 0.051384065 0.083372965 0.16975404 0.15388188 0.075117394 0.10670159
0.021105748 0.1112067 0.09360911 0.04373077 0.09504825 0.03371969 0.030498521 0.070070386
0.0728551 0.038758576 0.12748636 0.022727285 0.105165616 0.048831545 0.15247814 0.047569435
0.13415824 0.16643322 0.19099428 0.0918438 0.07279217 0.063625365 0.15650196 0.079360455
0.055423636 0.014851236 0.07299805 0.078112766 0.037946198 0.22833642 0.01764384 0.04084279
0.075340696 0.15458514 0.032848176 0.016277632 0.032535005 0.14272578 0.23214622 0.070221685
0.07858944 0.15023825 0.16587147 0.061540358 0.035654567 0.14500234 0.07993926 0.24603899
0.04011786 0.06791082 0.06273255 0.2138733 0.18081611 0.1462364 0.14376251 0.032323577
0.046598405 0.07167447 0.2024578 0.022946311 0.114176586 0.056364037 0.0351824 0.077176034
0.14343598 0.048560426 0.06657592 0.04844307 0.1714645 0.23073679 0.10303766 0.026386026
0.103745215 0.14816175 0.0039717895 0.06131322 0.139578 0.12918523 0.12903091 0.065035865
0.17928015 0.2301083 0.21598262 0.15653478 0.13150239 0.115515314 0.12696314 0.018035064
0.09154904 0.078267686 0.13694866 0.13039541 0.05043842 0.083764434 0.032237973 0.11587737
0.19153942 0.059901047 0.18191625 0.079417445 0.0518602 0.12511823 0.03064683 0.05435885
0.11408305 0.05863035 0.18722032 0.08050937 0.16203064 0.06640508 0.08349123 0.059248406
00000000: 743b 253e d184 363e 7885 8e3d 9b73 8f3e
00000010: db55 cb3d 8a45 823e 286d ec3d 1a50 873d
00000020: 7f2d 8b3e a655 c43d 1978 523d 72bf aa3d
00000030: 01d4 2d3e 3693 1d3e 26d7 993d 5d86 da3d
00000040: f6e5 ac3c 57c0 e33d 22b6 bf3d 091f 333d
00000050: a8a8 c23d a81d 0a3d 09d8 f93c 1081 8f3d
00000060: 0e35 953d 50c1 1e3d c98b 023e 922e ba3c
00000070: 1261 d73d 9603 483d 3b23 1c3e 2bd8 423d
00000080: c760 093e 786d 2a3e 0194 433e 9a18 bc3d
00000090: 1014 953d 044e 823d 0d42 203e bc87 a23d
000000a0: e503 633d 9952 733c 0080 953d 96f9 9f3d
000000b0: 796d 1b3d 06d1 693e d089 903c c54a 273d
000000c0: 394c 9a3d 914b 1e3e cf8b 063d ab58 853c
000000d0: 6d43 053d b526 123e bdb7 6d3e 63d0 8f3d
000000e0: 80f3 a03d 0ed8 193e 36da 293e be11 7c3d
000000f0: 860a 123d 7e7b 143e 32b7 a33d a5f1 7b3e
00000100: a052 243d d414 8b3d ec79 803d 9a01 5b3e
00000110: dc27 393e ffbe 153e 7b36 133e ba65 043d
00000120: f8dd 3e3d 11ca 923d 1951 4f3e e7f9 bb3c
00000130: 6ad5 e93d fadd 663d 6c1b 103d 780e 9e3d
00000140: e2e0 123e 4ce7 463d f558 883d 3e6c 463d
00000150: 6494 2f3e 4446 6c3e 6905 d33d 8227 d83c
00000160: 5f78 d43d b7b7 173e c925 823b 9223 7b3d
00000170: 89ed 0e3e 2249 043e ae20 043e 8631 853d
00000180: 3795 373e 83a1 6b3e 8c2a 5d3e a74a 203e
00000190: 90a8 063e 4b93 ec3d a002 023e 45be 933c
000001a0: 107e bb3d cf4a a03d 453c 0c3e 6086 053e
000001b0: 8498 4e3d b08c ab3d f70b 043d 1d51 ed3d
000001c0: e922 443e cd5a 753d 4148 3a3e 9da5 a23d
000001d0: 5c6b 543d fe1e 003e 100f fb3c 63a7 5e3d
000001e0: 60a4 e93d 6126 703d afb6 3f3e 19e2 a43d
000001f0: 5ceb 253e 63ff 873d 73fd aa3d 75ae 723d

bn.running_var f4 [128]
0.054962896 0.04549424 0.0074955476 0.13872792 0.026521679 0.12048942 0.023076948 0.012057001
0.10735332 0.017983815 0.010570061 0.017668106 0.054608636 0.03756125 0.012635901 0.016823968
0.0027351438 0.023377478 0.0054961713 0.007606301 0.009940257 0.0053468184 0.0046274746 0.01186001
0.012084978 0.004834555 0.026004085 0.003451638 0.030036107 0.007204944 0.029458422 0.0076127765
0.018811565 0.05757085 0.05826598 0.015314054 0.012451937 0.012098953 0.0531484 0.014595228
0.011060868 0.002779055 0.014827272 0.012552109 0.006005487 0.09929235 0.0027415813 0.009676672
0.018948667 0.046667155 0.0052904948 0.0026466795 0.005915097 0.024014007 0.08373916 0.011347365
0.01269308 0.040430833 0.062831596 0.007881003 0.005220527 0.024596175 0.015204417 0.10187725
0.0064277165 0.015359226 0.013675231 0.062917575 0.04131502 0.03151884 0.04264403 0.006366165
0.009196584 0.007651038 0.082800165 0.002872421 0.02541248 0.010048969 0.009473798 0.018562505
0.03864776 0.009359884 0.008778058 0.0072032637 0.04982316 0.07960885 0.03523723 0.0051472993
0.015473594 0.041910775 0.00057651126 0.009152131 0.038026594 0.026720595 0.026550263 0.013974727
0.037191276 0.09938361 0.086778454 0.027618455 0.01872097 0.030335372 0.04228044 0.0024854504
0.018264737 0.01372415 0.03155528 0.039403066 0.009084245 0.020066414 0.00661346 0.021097306
0.07025634 0.015475163 0.04815017 0.0076582604 0.013078314 0.013284931 0.0069387555 0.012033806
0.017317057 0.009205872 0.04298991 0.018887864 0.0711844 0.009303667 0.018400481 0.01331452
00000000: c620 613d 2b58 3a3d 369d f53b b10e 0e3e
00000010: fe43 d93c 28c3 f63d de0b bd3c ba8a 453c
00000020: 0fdc db3d cb52 933c 0d2e 2d3c b4bc 903c
00000030: 4ead 5f3d d3d9 193d cf06 4f3c 6bd2 893c
00000040: 1940 333b 2082 bf3c 3a19 b43b 473e f93b
00000050: 76dc 223c 5d34 af3b 12a2 973b 7d50 423c
00000060: 1200 463c 306b 9e3b 8506 d53c e034 623b
00000070: 480e f63c 7317 ec3b ca52 f13c 9974 f93b
00000080: b61a 9a3c 69cf 6b3d 4fa8 6e3d cce7 7a3c
00000090: 3603 4c3c b03a 463c 23b2 593d d320 6f3c
000000a0: a538 353c ce20 363b 16ee 723c 5ca7 4d3c
000000b0: adc9 c43b ca59 cb3d 1aac 333b e78a 1e3c
000000c0: 3c3a 9b3c 0f26 3f3d e35b ad3b ea73 2d3b
000000d0: 6ed3 c13b 06b9 c43c 707f ab3d 4cea 393c
000000e0: a3f6 4f3c cd9a 253d daad 803d 531f 013c
000000f0: f410 ab3b eb7d c93c f21b 793c 05a5 d03d
00000100: 989f d23b 43a5 7b3c 130e 603c eeda 803d
00000110: f039 293d e619 013d 82ab 2e3d 439b d03b
00000120: 45ad 163c 8fb5 fa3b 2293 a93d 3a3f 3c3b
00000130: d52d d03c 6ea4 243c fd37 1b3c 6510 983c
00000140: 1d4d 1e3d 335a 193c d8d1 0f3c 5b09 ec3b
00000150: 5f13 4c3d f709 a33d ea54 103d adaa a83b
00000160: f584 7d3c a2aa 2b3d 0421 173a d2f2 153c
00000170: c6c1 1b3d 26e5 da3c f07f d93c 41f6 643c
00000180: e155 183d a289 cb3d e7b8 b13d 1940 e23c
00000190: b85c 993c e381 f83c 412e 2d3d f0e2 223b
000001a0: ee9f 953c 42db 603c 1c40 013d 1c65 213d
000001b0: 16d6 143c 5262 a43c b9b5 d83b 42d4 ac3c
000001c0: 8ee2 8f3d 8a8b 7d3c 1d39 453d 25f2 fa3b
000001d0: 6d46 563c 0aa9 593c 805e e33b 7129 453c
000001e0: 80dc 8d3c 3ad4 163c 3016 303d b9ba 9a3c
000001f0: 20c9 913d 686e 183c 9bbc 963c 2525 5a3c

fc1.weight f4 [64, 768]
-0.028469097 -0.02993388 -0.096610814 -0.15443346 -0.22663394 -0.18261705 -0.15215352 0.04052865
-0.045200612 -0.09325704 0.16055329 0.25769803 0.286587 0.3614705 0.31598583 0.44214827
-0.12180326 -0.096777245 -0.2534155 -0.04622645 -0.36493608 -0.15878111 -0.108953774 -0.15733245
-0.12582766 -0.06256926 0.101469785 0.15054224 0.22693597 0.33837822 0.36911684 0.43605575
-0.14992125 -0.06437854 -0.1225299 -0.24523053 -0.16011545 -0.26800367 -0.24182664 -0.35421282
-0.23841543 -0.09676877 0.06023373 0.24103098 0.1689216 0.03970469 -0.029726703 0.25740448
-0.27330136 -0.25850728 -0.19794162 -0.2575956 -0.22364248 -0.17647296 -0.34544542 -0.36001223
-0.18267013 -0.089205556 0.15471126 0.14745204 0.27931982 0.1780223 0.18328041 0.22000518
-0.17115234 -0.2295875 -0.42351708 -0.27276945 -0.4658805 -0.3541213 -0.2702934 -0.42708382
-0.16694392 -0.046734955 -0.018774739 0.26591837 0.26313633 0.2184007 0.03730845 -0.08706269
-0.3845948 -0.20628287 -0.28442818 -0.4459153 -0.38237756 -0.3110985 -0.19845113 -0.38291863
-0.59408194 -0.59390944 -0.35974693 -0.03308813 0.09229941 0.087201 0.012371039 -0.2545767
-0.18148166 -0.24925172 -0.22367969 -0.17343657 -0.11920387 0.10275288 0.047522943 -0.14308128
-0.079313286 0.17153378 -0.09761214 -0.09165827 -0.10473107 0.07856696 0.102716364 0.21094237
-0.14918803 -0.17639539 -0.13909253 -0.07659884 -0.11383352 0.048256967 0.15736663 -0.04851152
-0.033145033 0.017297585 0.007768044 -0.22671732 -0.0064891037 0.060043156 0.21998163 0.009064893
-0.099947564 0.08324363 0.02613572 0.102602884 0.0077234237 -0.039712872 0.08873883 0.03167175
-0.2992194 -0.1807417 -0.04846408 -0.36355224 -0.21682823 -0.07997221 -0.06830703 -0.23888572
0.04962756 0.07777799 0.07128528 -0.022055738 -0.02757775 -0.026413072 -0.056346375 0.038376525
-0.10351912 0.030665781 -0.06571853 0.06949908 -0.25959173 -0.14727342 -0.02153052 -0.022944398
0.045897454 0.15459508 -0.0062399907 0.018727684 -0.016508868 -0.055089563 0.08089938 0.07202691
0.041073747 -0.12486922 -0.041377068 0.041431885 -0.01393265 -0.120302126 0.06978582 -0.07378981
-0.0609832 -0.0060885916 -0.057890315 -0.0635513 -0.07420554 -0.0516021 -0.039386306 -0.026696382
0.0021910314 0.011647721 -0.1526168 -0.13052082 0.03155665 0.04751612 -0.11774361 0.14592414
0.20556983 0.1053759 0.002605154 0.05837468 -0.1383047 -0.22721246 -0.048689734 -0.13609603
-0.0032446303 -0.00087488245 0.009461277 -0.08630034 -0.0843057 0.16882065 -0.0061262986 0.03296798
0.090107664 -0.0277323 -0.08970377 -0.18118486 0.0004828494 0.14609042 -0.021858195 0.01014698
0.15222698 0.01145272 0.1455097 0.15782423 -0.22734644 -0.15509264 -0.019479323 -0.031965856
-0.043092 0.0034694506 0.012267723 -0.09036233 -0.24303938 0.042735565 -0.14124678 -0.24842499
0.1329247 0.0065057324 -0.20220381 0.0104766395 0.0892304 -0.090549104 0.0054009645 0.003975613
-0.19010839 -0.0087751895 0.018430056 -0.03339791 -0.10530597 0.04190508 -0.16857128 -0.19922344
-0.18358678 -0.042249043 -0.22558585 -0.060472064 0.14202414 -0.0033785175 -0.2547975 -0.17783916
00000000: 0638 e9bc e537 f5bc e4db c5bd ce23 1ebe
00000010: ba12 68be f7ff 3abe 22ce 1bbe 5f01 263d
00000020: 4724 39bd 8cfd bebd 1568 243e fff0 833e
00000030: 88bb 923e a912 b93e e5c8 a13e 4261 e23e
00000040: fd73 f9bd 2633 c6bd adbf 81be f257 3dbd
00000050: e7d8 babe 8497 22be 2823 dfbd c21b 21be
00000060: f7d8 00be 5024 80bd 64cf cf3d bf27 1a3e
00000070: e761 683e e93f ad3e e2fc bc3e b342 df3e
00000080: f584 19be e5d8 83bd f5f0 fabd b61d 7bbe
00000090: 4ef5 23be c737 89be 67a1 77be 625b b5be
000000a0: 2d23 74be b42e c6bd a5b7 763d d3d0 763e
000000b0: c9f9 2c3e 63a1 223d 6a85 f3bc 85ca 833e
000000c0: 28ee 8bbe 115b 84be 35b1 4abe 92e3 83be
000000d0: 8902 65be 54b5 34be 39de b0be 8653 b8be
000000e0: e10d 3bbe 67b1 b6bd a16c 1e3e abfd 163e
000000f0: 0203 8f3e 7a4b 363e dcad 3b3e 0a49 613e
00000100: 8f42 2fbe fc18 6bbe 3bd7 d8be 70a8 8bbe
00000110: e487 eebe 634f b5be e663 8abe bbaa dabe
00000120: 59f3 2abe 276d 3fbd 7bcd 99bc 7426 883e
00000130: ceb9 863e 6fa4 5f3e bfd0 183d ec4d b2bd
00000140: 9ce9 c4be d13b 53be 92a0 91be 034f e4be
00000150: fec6 c3be 4d48 9fbe c636 4bbe e90d c4be
00000160: c115 18bf 730a 18bf c030 b8be 6b87 07bd
00000170: 7907 bd3d 7096 b23d e6af 4a3c e157 82be
00000180: 54d6 39be d83b 7fbe 4a0c 65be 5b99 31be
00000190: 2921 f4bd 1a70 d23d 6ba7 423d e683 12be
000001a0: 016f a2bd 8da6 2f3e e0e8 c7bd 55b7 bbbd
000001b0: 3e7d d6bd b7e7 a03d f55c d23d 4701 583e
000001c0: bfc4 18be fea0 34be 466e 0ebe dadf 9cbd
000001d0: 8c21 e9bd 19a9 453d b824 213e 04b4 46bd
000001e0: 16c3 07bd aab3 8d3c 138b fe3b 9628 68be
000001f0: 8ca2 d4bb d0ef 753d dd42 613e eb84 143c
00000200: 4fb1 ccbd a37b aa3d 941a d63c 7621 d23d
00000210: c614 fd3b f7a9 22bd b4bc b53d 3dba 013d
00000220: 4933 99be 5a14 39be 4582 46bd 8523 babe
00000230: 3808 5ebe 78c8 a3bd 8ee4 8bbd 759e 74be
00000240: 4546 4b3d 114a 9f3d 04fe 913d 3cae b4bc
00000250: bcea e1bc 3a60 d8bc 75cb 66bd b430 1d3d
00000260: d501 d4bd ce36 fb3c 7097 86bd 8955 8e3d
00000270: 35e9 84be d8ce 16be c660 b0bc e4f5 bbbc
00000280: f8fe 3b3d 2c4e 1e3e d678 ccbb cd6a 993c
00000290: 9b3d 87bc 98a5 61bd 93ae a53d d882 933d
000002a0: f23c 283d 6fbb ffbd 007b 29bd 7bb4 293d
000002b0: c545 64bc f660 f6bd deeb 8e3d 1d1f 97bd
000002c0: 85c9 79bd cf82 c7bb 651e 6dbd 2f27 82bd
000002d0: 13f9 97bd b95c 53bd 8953 21bd 5fb2 dabc
000002e0: 6897 0f3b 15d6 3e3c 9447 1cbe 40a7 05be
000002f0: 8c41 013d 43a0 423d 9023 f1bd 236d 153e
00000300: e680 523e 52cf d73d 3bbb 2a3b 4a1a 6f3d
00000310: bf9f 0dbe 62aa 68be e36e 47bd c25c 0bbe
00000320: dda3 54bb 5e58 65ba 7903 1b3c 3cbe b0bd
00000330: 78a8 acbd 52df 2c3e 1ebf c8bb 6f09 073d
00000340: 5e8a b83d d92e e3bc 9cb6 b7bd 8688 39be
00000350: f326 fd39 ba98 153e f50f b3bc 853f 263c
00000360: 64e1 1b3e 30a4 3b3c 7f00 153e ad9c 213e
00000370: 81cd 68be 9bd0 1ebe 1a93 9fbc a1ee 02bd
00000380: 3d81 30bd b95f 633b 8ffe 483c e30f b9bd
00000390: 51df 78be 7d0b 2f3d ffa2 10be 1f63 7ebe
000003a0: 6a1d 083e 0a2e d53b 840e 4fbe 36a6 2b3c
000003b0: 6ebe b63d cf71 b9bd 93fa b03b dc45 823b
000003c0: c6ab 42be d0c5 0fbc a1fa 963c 3fcc 08bd
000003d0: a8aa d7bd a9a4 2b3d f39d 2cbe 3b01 4cbe
000003e0: 2cfe 3bbe 550d 2dbd faff 66be 8eb1 77bd
000003f0: c76e 113e 1e6a 5dbb d174 82be 781b 36be

fc1.bias f4 [64]
0.25807428 -0.031775784 -0.7257423 -0.2245313 0.12152073 0.10549702 -0.17982666 -0.02169283
0.5619476 -0.41607195 -0.071170144 -0.20926914 0.24032897 -0.042206813 -0.42676672 -0.6727882
0.14367825 -0.30722594 0.51595026 -0.19762135 -0.38203076 0.019116493 0.33673936 0.50291526
-0.048526578 0.29938674 -0.09265385 -0.020812185 -0.21729693 -0.11813695 0.06884566 0.07570395
0.53384984 -0.396776 0.33890235 -0.08222561 -0.7491044 -0.053146593 -0.43514088 -0.07790654
0.16962394 0.15822989 0.062546365 -0.10751305 -0.011345832 -0.15057677 -0.49578786 -0.10779842
-0.32681644 0.39628348 0.16942328 0.14122973 -0.22571307 -0.2586781 -0.63533807 0.15385243
0.59136516 0.48026747 0.2867096 0.26760632 0.42560625 -0.416154 -0.419401 0.45272332
00000000: 5022 843e 5327 02bd 3fca 39bf 88eb 65be
00000010: dcdf f83d d20e d83d 7b24 38be 29b5 b1bc
00000020: ccdb 0f3f 6207 d5be a7c1 91bd a64a 56be
00000030: cc18 763e 0de1 2cbd 2b81 dabe d93b 2cbf
00000040: 6420 133e b84c 9dbe 5115 043f 405d 4abe
00000050: 8999 c3be 319a 9c3c 1a69 ac3e 0ebf 003f
00000060: cec3 46bd 3849 993e 4dc1 bdbd 517e aabc
00000070: 1683 5ebe c9f1 f1bd f4fe 8c3d ac0a 9b3d
00000080: 62aa 083f 3926 cbbe 9c84 ad3e e765 a8bd
00000090: 4ec5 3fbf 3eb0 59bd c9ca debe 778d 9fbd
000000a0: e6b1 2d3e 0407 223e 4f18 803d cd2f dcbd
000000b0: dee3 39bc cc30 1abe e8d7 fdbe 6bc5 dcbd
000000c0: 7c54 a7be abe5 ca3e 4c7d 2d3e 879e 103e
000000d0: 5421 67be 7571 84be 84a5 22bf 7e8b 1d3e
000000e0: b563 173f 9ee5 f53e 9acb 923e b203 893e
000000f0: 10e9 d93e 2312 d5be babb d6be 5acb e73e

fc2.weight f4 [64, 64]
0.11695496 -0.22720067 -0.11416562 -0.0065800417 0.36077774 -0.12061533 -0.011942697 -0.33661908
-0.08488655 -0.38215813 -0.100253284 -0.0635884 0.10086482 -0.28173533 -0.16542691 -0.027950266
0.16830002 -0.2759781 -0.014395221 -0.2618699 -0.11655422 0.105033204 -0.005984725 0.21380834
-0.38342157 0.074049324 -0.21438873 0.024672724 0.21539967 -0.22313544 0.013750439 -0.2293519
-0.28852326 0.04985686 -0.03992129 -0.29214472 -0.11175868 -0.3926555 -0.0030167121 -0.10164999
-0.21936452 0.0321347 -0.271908 -0.16032086 0.05267901 -0.16523877 -0.11187485 -0.4408517
-0.06458152 -0.037686776 -0.043606553 -0.0023648343 -0.29103297 0.14968054 -0.039395664 -0.16723642
0.021370918 -0.1979775 -0.3089156 0.24560937 -0.26555923 -0.15189533 -0.08645572 -0.21514235
0.07594487 0.19228981 0.045242004 -0.26702255 -0.02901421 -0.0366555 0.09055357 -0.21028464
-0.0096565075 -0.12703396 -0.12442818 -0.1262994 0.14248955 0.0225422 0.0014481536 0.023005908
-0.14086393 0.1142146 -0.10680737 -0.021505525 0.048200555 -0.05855888 0.13384971 -0.07039742
-0.10896124 0.088179134 -0.0059793983 -0.08891098 -0.05372227 -0.04464034 0.0575964 -0.095653266
-0.11253202 -0.11880503 0.185382 -0.054382827 0.009740164 -0.34219414 -0.0022182143 0.011531212
0.18935835 -0.2608312 0.16376534 -0.17452556 -0.022198448 -0.003660129 -0.02444846 0.12271537
-0.13043272 -0.024620224 -0.07367789 -0.03260438 -0.01140688 -0.23624064 -0.094488814 0.117177516
-0.13324444 -0.043952342 -0.002987522 0.005317871 -0.008869811 -0.09108669 -0.11835588 -0.15511969
-0.2194967 0.048357535 0.08371881 0.048901755 -0.13207017 -0.06843588 -0.21150638 0.029258782
0.12083066 -0.25353426 -0.12832177 0.024334366 -0.08032923 0.09779436 0.021899046 -0.13319153
-0.26006198 -0.11011424 0.1974042 -0.03630641 -0.33774707 -0.17256337 0.07816178 0.069128014
0.048246272 0.09442329 -0.07089068 0.20821007 0.023434684 -0.16463457 0.072298266 -0.14996988
-0.34541765 0.08821284 0.18290013 0.16821149 -0.020034349 0.02278733 -0.10083096 0.1783684
-0.09592596 0.19636536 0.14748095 0.01734277 -0.10745151 -0.16894951 -0.028922524 -0.17977883
-0.124214 -0.19739981 -0.20157951 0.026908556 0.031654485 -0.19817942 0.04020617 -0.31044495
-0.10027272 -0.10780253 -0.11823295 0.2127221 0.21613969 0.12997237 -0.41222745 0.008578366
0.17356782 -0.11113366 -0.112200946 -0.055603605 -0.33509263 0.049666394 0.057238095 -0.42828953
-0.25579605 0.15276812 -0.47517067 -0.2906699 -0.013630703 -0.29640606 -0.249774 0.18171597
-0.2292136 -0.17369719 0.08549492 -0.016524889 -0.3517387 0.042211678 0.06325206 -0.17099163
-0.024796195 0.03579215 -0.12143389 -0.23083414 0.0043587796 -0.26630053 -0.12988347 -0.37991792
-0.017082794 -0.092509635 0.035972178 0.10614375 0.15772568 -0.116727434 0.14825754 -0.33425376
0.08966838 -0.09352975 -0.058770638 0.03529572 -0.09849004 -0.02682421 -0.0020292106 0.028898288
0.2482341 0.09304994 0.031530216 -0.100115836 -0.080442876 0.12039848 0.13271141 -0.0723778
-0.017732577 0.1387192 -0.10270611 -0.34938565 -0.016814789 -0.026712578 -0.10116587 0.15662675
00000000: 1586 ef3d 4ba7 68be aacf e9bd 649d d7bb
00000010: dcb7 b83e 2c05 f7bd 4dab 43bc 5659 acbe
00000020: 00d9 adbd 3baa c3be 9851 cdbd a33a 82bd
00000030: 3792 ce3d 9d3f 90be ac65 29be f5f7 e4bc
00000040: d756 2c3e 004d 8dbe efd9 6bbc d013 86be
00000050: fbb3 eebd a61b d73d 831b c4bb 93f0 5a3e
00000060: d54f c4be 2ca7 973d b888 5bbe 741e ca3c
00000070: bb91 5c3e 9e7d 64be 8549 613c 39db 6abe
00000080: 52b9 93be b536 4c3d 8284 23bd fe93 95be
00000090: bce1 e4bd 240a c9be 08b4 45bb df2d d0bd
000000a0: 18a1 60be ad9f 033d 8637 8bbe 272b 24be
000000b0: f2c5 573d 5a34 29be a41e e5bd 50b7 e1be
000000c0: 5143 84bd 735d 1abd c99c 32bd 56fb 1abb
000000d0: 4602 95be db45 193e 595d 21bd 0640 2bbe
000000e0: 1012 af3c 9dba 4abe 2f2a 9ebe 0681 7b3e
000000f0: 61f7 87be 738a 1bbe b20f b1bd 474e 5cbe
00000100: fc88 9b3d 9fe7 443e ae4f 393d 2eb7 88be
00000110: 35af edbc 1424 16bd 2674 b93d db54 57be
00000120: 5436 1ebc 3115 02be 34d4 febd a154 01be
00000130: c8e8 113e 6baa b83c f9cf bd3a e376 bc3c
00000140: a23e 10be 58e9 e93d d3bd dabd 5b2c b0bc
00000150: f26d 453d 70db 6fbd e60f 093e 862c 90bd
00000160: 1227 dfbd 4397 b43d d4ee c3bb f616 b6bd
00000170: e20b 5cbd cad8 36bd 34ea 6b3d dce5 c3bd
00000180: 3077 e6bd 0d50 f3bd c7d4 3d3e 87c0 5ebd
00000190: 3595 1f3c 1234 afbe 765f 11bb 69ed 3c3c
000001a0: 28e7 413e ab8b 85be 1ab2 273e d4b6 32be
000001b0: 85d9 b5bc c6de 6fbb 2348 c8bc 3252 fb3d
000001c0: 2890 05be 5ab0 c9bc 6fe4 96bd 2c8c 05bd
000001d0: ece3 3abc 11e9 71be 5a83 c1bd c4fa ef3d
000001e0: 3b71 08be 5f07 34bd 4dca 43bb 8941 ae3b
000001f0: af52 11bc a98b babd 9164 f2bd b2d7 1ebe
00000200: bec3 60be 8d12 463d c474 ab3d 354d 483d
00000210: 673d 07be 1c28 8cbd 2195 58be 1db0 ef3c
00000220: 1176 f73d 3ecf 81be c866 03be dd58 c73c
00000230: a783 a4bd 6948 c83d a165 b33c 5c63 08be
00000240: d826 85be 9383 e1bd 5424 4a3e 08b6 14bd
00000250: 2fed acbe 74b4 30be 4913 a03d fd92 8d3d
00000260: e29d 453d ff60 c13d 222f 91bd 0535 553e
00000270: 18fa bf3c f795 28be 1d11 943d b491 19be
00000280: 95da b0be efa8 b43d 2c4a 3b3e a23f 2c3e
00000290: 131f a4bc 7fac ba3c 7680 cebd 35a6 363e
000002a0: d474 c4bd 0014 493e 3f05 173e 6d12 8e3c
000002b0: 8a0f dcbd 1a01 2dbe eeee ecbc f117 38be
000002c0: e963 febd 2d23 4abe dc6a 4ebe 556f dc3c
000002d0: 22a8 013d 8cef 4abe 3aaf 243d a4f2 9ebe
000002e0: c95b cdbd 93c7 dcbd 1e24 f2bd d2d3 593e
000002f0: b953 5d3e 7a17 053e 7a0f d3be 468c 0c3c
00000300: c3bb 313e 0b9a e3bd 9cc9 e5bd 9bc0 63bd
00000310: 4391 abbe fd6e 4b3d 7e72 6a3d c448 dbbe
00000320: b3f7 82be 3f6f 1c3e 9249 f3be afd2 94be
00000330: 5053 5fbc 89c2 97be c1c4 7fbe c013 3a3e
00000340: f8b6 6abe addd 31be f617 af3d 345f 87bc
00000350: 1817 b4be 27e6 2c3d 4c8a 813d 6e18 2fbe
00000360: 6421 cbbc ca9a 123d 55b2 f8bd c95f 6cbe
00000370: 18d4 8e3b 8b58 88be 2c00 05be 9a84 c2be
00000380: 37f1 8bbc b175 bdbd 9057 133d e561 d93d
00000390: d782 213e cb0e efbd d3d0 173e 4f23 abbe
000003a0: 0ea4 b73d 878c bfbd 7bb9 70bd 3f92 103d
000003b0: 25b5 c9bd 72be dbbc 81fc 04bb 1abc ec3c
000003c0: 1431 7e3e f890 be3d d425 013d 8809 cdbd
000003d0: 3cbf a4bd 7a93 f63d 80e5 073e d03a 94bd
000003e0: e943 91bc 680c 0e3e 9557 d2bd ade2 b2be
000003f0: 2bbf 89bc 56d4 dabc 0d30 cfbd c362 203e

fc2.bias f4 [64]
0.23487023 -0.4009577 0.33376402 0.6009357 -0.15274997 0.54991895 -0.104658745 0.47852916
0.50846803 0.16352946 0.21412301 0.47197774 0.44772363 0.42049164 0.38556936 -0.15527004
-0.13650933 0.5140136 0.21695739 0.5337115 0.21522655 0.54585713 0.41404018 0.0801
0.10160432 0.012479097 -0.018652549 0.46661043 0.4644797 -0.20727573 0.45756826 -0.19800419
0.56427914 0.11027829 0.41845703 -0.03569465 0.3566116 0.77074134 -0.14494431 0.53661907
-0.11786888 0.25497484 0.47936293 -0.08763446 -0.26988253 -0.2770254 0.13106756 0.3273026
-0.14917539 0.15544762 -0.028546745 0.64824337 -0.23319669 0.5445244 0.19426738 0.6620524
1.0157311 0.94863755 0.09787024 -0.08684546 -0.16563818 0.30887082 -0.21879622 0.18343322
00000000: d281 703e 544a cdbe 1ee3 aa3e ecd6 193f
00000010: 7d6a 1cbe 7dc7 0c3f 5357 d6bd c601 f53e
00000020: f62a 023f 4474 273e 1043 5b3e 11a7 f13e
00000030: 083c e53e ae4a d73e 5969 c53e 1cff 1ebe
00000040: 1ac9 0bbe 6596 033f 142a 5e3e 51a1 083f
00000050: 5964 5c3e 4bbd 0b3f 13fd d33e 780b a43d
00000060: ed15 d03d 2075 4c3c 3bcd 98bc 90e7 ee3e
00000070: 49d0 ed3e 1740 54be 6346 ea3e 9cc1 4abe
00000080: 9974 103f 96d9 e13d 0040 d63e 8e34 12bd
00000090: cc95 b63e 4e4f 453f 486c 14be de5f 093f
000000a0: 3d65 f1bd 108c 823e 0f6f f53e b279 b3bd
000000b0: 0b2e 8abe 46d6 8dbe 9336 063e 3594 a73e
000000c0: 6fc1 18be a92d 1f3e ddda e9bc 47f3 253f
000000d0: 1dcb 6ebe f365 0b3f 07ee 463e 447c 293f
000000e0: 7a03 823f e9d9 723f 3170 c83d 08dc b1bd
000000f0: 0e9d 29be 5124 9e3e 1e0c 60be ebd5 3b3e

fc3.weight f4 [24, 64]
-0.5372122 -0.0867518 0.22836278 -0.26553133 -0.08276829 0.17650145 -0.76136243 -0.012957779
-0.0893133 -0.18125552 -0.15139598 0.051443744 -0.0026710352 0.0924009 -0.28449458 -1.0016472
-0.5047216 -0.3196573 -0.48835793 0.036031723 -0.32603055 -0.10380541 -0.21133423 0.017438376
0.05778151 -0.530183 -0.07523126 0.27107987 0.038209647 -0.8765303 0.0011015336 -0.7667252
-0.07721756 -0.03658888 -0.27089357 -0.5363279 0.0042304485 0.043346234 -0.20732395 -0.44218022
-0.2680168 -0.5031337 0.03886831 -0.597907 -0.49882215 -0.41655752 -0.1060102 -0.018358357
-0.18325953 -0.29390347 -0.6251626 0.07758873 -0.5323089 -0.59098256 -0.52792394 -0.21877007
0.0013620784 -0.360366 -0.090371825 -0.29405525 -0.14250506 -0.050617263 -0.7311922 -0.31598064
-0.11824368 -0.40373933 -0.0045967237 -0.040260997 -0.12619029 0.02943524 -0.3071956 -0.13011113
-0.07128547 -0.2857296 0.0075021014 -0.018767504 0.062261667 0.073072165 -0.011925871 -0.4517556
-0.14489006 -0.40669155 0.029694753 0.1381416 -0.22861722 -0.14869483 0.14757265 -0.03747267
0.0646825 -0.26483953 -0.14032832 0.11520218 -0.1363178 -0.2972758 -0.026145034 0.026847392
-0.24819045 -0.11273155 0.047339253 -0.38293818 0.023240402 0.025645308 -0.16853318 -0.12848352
-0.2850482 -0.2379749 -0.2340007 -0.26317373 -0.2982306 -0.38966712 -0.46058503 -0.06506341
-0.06443129 -0.18843004 -0.42898396 0.07779869 -0.20027135 -0.04817873 -0.0100113405 0.01072264
0.060832173 0.1354901 -0.18498152 0.06628556 -0.013800411 0.092275865 -0.36423233 -0.20972572
-0.049912494 -1.3559705 -0.0774654 -0.50381815 -0.31178263 0.0065128948 -0.7825096 -0.011185167
-0.10171483 -0.63802505 -0.45090702 0.21892098 -0.014896772 -0.186426 -0.1663015 -1.4322475
-0.67715734 -0.39958602 -0.066101775 0.05023043 -0.4384115 -0.6268581 -0.13601819 -0.19239503
-0.016046826 -0.8840657 -0.24423923 -0.23442852 -0.6785161 -1.8187001 -0.07116009 -0.6803652
-0.46078348 0.11546422 -0.009377472 -0.31941932 -0.41318968 -0.012322778 -0.6079516 0.35823396
-0.6675278 -0.14169548 -0.43659037 -0.44937897 -0.26185963 -0.7131004 -0.3919065 -0.11795919
-0.044832353 -0.2195083 -1.2430751 -0.18644817 -1.3088063 0.000739958 -0.2296987 -0.091604546
-0.223763 -0.25758147 -0.65667063 -0.90096813 -0.26051387 0.046087112 -0.99166805 -0.3251078
-1.0790272 -0.30927753 -1.4217308 -2.0032644 -0.08846459 -0.60561335 -0.7758091 -0.8128132
-1.4091085 -0.2808448 -1.9937881 -1.8866428 -2.180925 -1.122393 -1.1506442 -0.22603503
-0.4679267 -0.45645434 -1.1942124 -1.0861728 -0.8337079 -2.5834641 -1.4537796 -0.7992535
-1.4061931 -0.4589703 -1.136628 -1.0000023 -1.6914641 -0.55038005 -0.4851353 -0.4315718
-1.2550886 -2.0093858 -1.3494189 -0.6394974 -1.322832 -2.4537897 -0.6135732 -1.2370431
-0.2520134 -1.2180848 -1.244324 -0.51790315 -0.18191537 -0.36676675 -0.64799196 -1.7971548
0.06837657 -1.5512499 -0.13414654 -1.4935611 -0.8364062 -1.3862746 -0.8502711 -1.0062786
-2.9291527 -2.7237308 -0.19538034 -0.5851594 -0.058080375 -1.9354807 -0.38937446 -1.5057374
00000000: bd86 09bf edaa b1bd efd7 693e b9f3 87be
00000010: 6c82 a9bd ccbc 343e a6e8 42bf dd4c 54bc
00000020: e4e9 b6bd 0c9b 39be 8c07 1bbe adb6 523d
00000030: 890c 2fbb af3c bd3d 46a9 91be fa35 80bf
00000040: 6f35 01bf 1faa a3be 0d0a fabe 0096 133d
00000050: 7aed a6be ee97 d4bd 0068 58be edda 8e3c
00000060: 4eac 6c3d 13ba 07bf d912 9abd fbca 8a3e
00000070: b881 1c3d 4a64 60bf 5661 903a 1a48 44bf
00000080: 3d24 9ebd 39de 15bd 90b2 8abe c94c 09bf
00000090: 939f 8a3b d28b 313d bb4c 54be 7265 e2be
000000a0: 7f39 89be 5fcd 00bf 6134 1f3d 6f10 19bf
000000b0: 9e65 ffbe 0747 d5be e01b d9bd 4464 96bc
000000c0: 63a8 3bbe 847a 96be a80a 20bf d7e6 9e3d
000000d0: 6545 08bf a24a 17bf 0626 07bf 4305 60be
000000e0: c487 b23a e481 b8be dd14 b9bd 698e 96be
000000f0: d9ec 11be 0c54 4fbd 692f 3bbf 37c8 a1be
00000100: be29 f2bd ecb6 cebe 1da0 96bb b7e8 24bd
00000110: 0738 01be 2c22 f13c be48 9dbe da3b 05be
00000120: 1efe 91bd 264b 92be 30d4 f53b 4fbe 99bc
00000130: 1706 7f3d dca6 953d ba64 43bc 834c e7be
00000140: 0f5e 14be e039 d0be 6942 f33c fe74 0d3e
00000150: a21a 6abe 7543 18be 491d 173e f17c 19bd
00000160: 4278 843d 0c99 87be 3ab2 0fbe 1fef eb3d
00000170: e596 0bbe 8934 98be 1c2e d6bc 10ef db3c
00000180: a325 7ebe cddf e6bd cee6 413d 7910 c4be
00000190: a862 be3c 1c16 d23c f693 2cbe 2f91 03be
000001a0: d6f1 91be b1af 73be e19d 6fbe b5be 86be
000001b0: aeb1 98be 7382 c7be cdd1 ebbe f73f 85bd
000001c0: 8df4 83bd cef3 40be c9a3 dbbe eb54 9f3d
000001d0: ef13 4dbe 0f57 45bd 9b06 24bc 03ae 2f3c
000001e0: 282b 793d ebbd 0a3e cc6b 3dbe b9c0 873d
000001f0: 1e1b 62bc 21fb bc3d a97c babe 57c2 56be
00000200: 0b71 4cbd 7190 adbf 2ea6 9ebd 3afa 00bf
00000210: f9a1 9fbe 1f6a d53b 8d52 48bf fe41 37bc
00000220: dd4f d0bd 9c55 23bf 49dd e6be d22c 603e
00000230: 9711 74bc 75e6 3ebe f14a 2abe e353 b7bf
00000240: 2f5a 2dbf 8a96 ccbe 5e60 87bd 6cbe 4d3d
00000250: 7977 e0be c679 20bf 5a48 0bbe 3403 45be
00000260: a274 83bc 2152 62bf d919 7abe 080e 70be
00000270: 3bb3 2dbf 2acb e8bf 62bc 91bd 6a2c 2ebf
00000280: d0eb ebbe 8178 ec3d f8a3 19bc ee8a a3be
00000290: 998d d3be 7ae5 49bc b7a2 1bbf 716a b73e
000002a0: 1ae3 2abf 9f18 11be c688 dfbe 0015 e6be
000002b0: 7712 86be bf8d 36bf f8a7 c8be 9694 f1bd
000002c0: 21a2 37bd c9c6 60be 161d 9fbf 45ec 3ebe
000002d0: f786 a7bf bef9 413a 2336 6bbe 2a9b bbbd
000002e0: 2122 65be b8e1 83be 911b 28bf d9a5 66bf
000002f0: 1362 85be d7c5 3c3d f5dd 7dbf 8874 a6be
00000300: 901d 8abf a059 9ebe 46fb b5bf 7c35 00c0
00000310: ec2c b5bd 7a09 1bbf 6d9b 46bf 8714 50bf
00000320: ab5d b4bf e4ca 8fbe 7334 ffbf 837d f1bf
00000330: 4694 0bc0 93aa 8fbf 4f48 93bf ba75 67be
00000340: 1794 efbe 62b4 e9be f4db 98bf b607 8bbf
00000350: e26d 55bf 7a57 25c0 7315 babf e19b 4cbf
00000360: 23fe b3bf 28fe eabe 077d 91bf 1300 80bf
00000370: e581 d8bf b5e5 0cbf a763 f8be fbf6 dcbe
00000380: bea6 a0bf c799 00c0 c2b9 acbf 1ab6 23bf
00000390: 8f52 a9bf e40a 1dc0 2213 1dbf 6e57 9ebf
000003a0: e607 81be 34ea 9bbf 0246 9fbf 4d95 04bf
000003b0: 0648 3abe dac8 bbbe cde2 25bf 2b09 e6bf
000003c0: 0409 8c3d 5b8f c6bf b65d 09be 032d bfbf
000003d0: b71e 56bf 7271 b1bf 5eab 59bf bdcd 80bf
000003e0: 3d77 3bc0 9b51 2ec0 c911 48be 02cd 15bf
000003f0: b0e5 6dbd d5bd f7bf 175c c7be 01bc c0bf

fc3.bias f4 [24]
-0.5698767 -0.06719296 -0.5432619 -2.3276498 -0.14607109 0.20624954 0.20238106 0.43660662
0.23802403 0.2460946 -0.54018533 -0.56278646 -0.37352842 0.3032778 -0.5225946 -0.5663176
-0.43615115 -0.24569315 0.18972033 -0.05913053 -2.244229 -2.2735648 -0.29687706 -0.32655686
00000000: 70e3 11bf 769c 89bd 3613 0bbf 37f8 14c0
00000010: a993 15be 1433 533e fb3c 4f3e e78a df3e
00000020: 92bc 733e 3900 7c3e 9649 0abf c612 10bf
00000030: 1e3f bfbe 3a47 9b3e c2c8 05bf 31fa 10bf
00000040: 344f dfbe fc96 7bbe 0c46 423e db32 72bd
00000050: 73a1 0fc0 1682 11c0 4500 98be 7632 a7be

exp_avg f4 [64, 768]
-0.00018312047 -0.0018565833 -0.0012049564 -0.0006394492 -0.0014947233 -0.0025436664 -0.0021233838 -0.0026515494
-0.002476183 -0.0021457039 -0.0017531889 -0.0017818122 -0.0019507526 -0.0026017136 -0.0007052965 -3.345055e-05
0.00021144662 -0.0012675576 -0.0005551404 -0.0005742641 -0.0013093753 -0.0016635974 -0.0018953506 -0.0021091762
-0.00212533 -0.0020342234 -0.0019791727 -0.001782848 -0.0021845312 -0.0015718854 -0.00031649164 0.00017426469
-0.0011975338 -0.0009171174 -0.0009597834 -0.00068760326 -0.0012789209 -0.0015664886 -0.0016974303 -0.0012806101
-0.0017976998 -0.0023799965 -0.0019221152 -0.0013899471 -0.0012315167 -0.0005360742 4.835864e-05 -0.00024834578
-0.0006192273 0.0003191744 -0.0012690444 -0.0007999993 -0.0012130601 -0.0016781745 -0.0011753611 -0.0010284876
-0.0014252482 -0.0018179677 -0.0009818241 -0.0011544423 -0.00072565087 -0.00014278485 0.00014315342 0.0008476364
0.0015015596 -0.00011222167 -0.0008789076 -0.00042597557 -0.0011667062 -0.0014497839 -0.00027638703 -0.0007756605
-0.0011820034 -0.0010780089 -0.0013459339 -0.00021211685 0.0012055349 0.0004892238 0.0016184724 0.0024839235
0.0013817202 0.0026082445 0.0014050715 0.0009149152 -0.0005734544 -0.00035810846 -0.0007367733 0.000119931996
0.00087389996 0.00017210082 0.0005490089 0.001503592 0.00118466 0.0012897805 0.0016433944 0.0025140955
0.0022382794 0.0023442158 0.002592088 0.0027724688 0.0018494818 0.0010498669 0.0011939637 0.0024002122
0.002749176 0.002766638 0.002341722 0.0022315013 0.0014698413 0.0020887498 0.0020001675 0.0024495558
0.0022527943 0.0036500485 0.0039146845 0.003874447 0.0026494772 0.0011131834 0.0012632243 0.0017013178
0.0027263106 0.0023847253 0.002800138 0.003137799 0.0018806233 0.0019953123 0.001638056 0.002057944
0.0026202851 0.002538049 0.0011722036 0.0015000266 0.0016566935 0.0006124489 0.00029165545 0.0014999382
0.0024945345 0.0030200537 0.0024172086 0.002753034 0.0018417295 0.0021444394 0.0019922708 0.0026287362
0.0011226517 0.0014289978 0.000480246 0.00058559363 -0.00032333334 -0.00063685054 -0.001397627 -0.000819227
-0.00084345316 0.00026325625 0.00061175897 0.0011184852 0.0007987201 0.0006334779 0.0008906376 0.0010811702
0.0003718 -0.000245904 -0.00085106085 -0.0010635542 -0.0006047396 -0.00075445685 -0.0008089626 8.32735e-06
-0.0005266418 -0.000113888345 -0.00062472344 0.00055684586 0.0011415953 0.0004436834 0.00028407623 0.00036686184
-0.0008570477 -0.0010168799 -0.00023325619 -0.00058169576 -5.9834343e-05 4.3476797e-05 8.0576334e-05 -0.00023838953
-0.00050825294 0.00021259348 -0.00078563544 -0.000516467 -9.91035e-05 5.9783957e-05 -0.00022038247 -0.00065948156
-0.0005565791 -0.00079066574 -0.00041898995 -0.00040208217 -0.00040851338 -5.340283e-05 0.00027108783 0.00033671307
0.0010159212 0.0004129263 -0.00024820017 0.00011816285 4.3536643e-06 9.986017e-06 2.7129745e-05 -0.0004959459
0.00014831893 1.4048744e-05 -0.00045022537 -0.00028654514 -0.00015746028 0.00020238839 0.00022863109 -0.00026815388
0.00014156639 -0.00036325783 -0.0006926363 -3.0047437e-05 0.0007103715 0.00024233326 -9.2986615e-05 -0.0001870207
0.00037521054 -0.00020041864 -0.00047164535 7.303509e-05 0.0005692075 0.0007202494 0.00085699913 0.00079068757
0.00044427172 -0.00024580394 -0.00043441297 -0.00033591333 0.00075592013 0.00080383825 0.0008480481 0.0011020999
0.00037604297 -0.00026902521 0.00081052945 0.0010919356 0.0008307293 0.00082637847 0.0007086551 0.00059394294
0.0019622052 0.00056731416 0.00032214905 0.00021686834 0.000247278 0.00078629766 0.0007916892 0.0014111787
00000000: 0704 40b9 9958 f3ba a1ef 9dba b6a0 27ba
00000010: 97ea c3ba a4b3 26bb 7828 0bbb 9ec5 2dbb
00000020: 7547 22bb f09e 0cbb 42cb e5ba b28b e9ba
00000030: 65b0 ffba 8381 2abb a6e3 38ba 414d 0cb8
00000040: c5b7 5d39 2d24 a6ba d786 11ba 368a 16ba
00000050: 589f abba 110d daba 6a6d f8ba 1b3a 0abb
00000060: 1f49 0bbb 9b50 05bb 02b5 01bb 74ae e9ba
00000070: 5a2a 0fbb b907 ceba caee a5b9 d2ba 3639
00000080: 91f6 9cba b56a 70ba f999 7bba 4640 34ba
00000090: 77a1 a7ba a352 cdba 4f7c deba 25da a7ba
000000a0: cca0 ebba b7f9 1bbb 7cef fbba e32e b6ba
000000b0: d86a a1ba 5587 0cba b2d4 4a38 6834 82b9
000000c0: a453 22ba dd56 a739 1056 a6ba 0bb7 51ba
000000d0: 8bff 9eba 31f6 dbba 930e 9aba 51ce 86ba
000000e0: 65cf baba e048 eeba 8db0 80ba a850 97ba
000000f0: 9b39 3eba 84b8 15b9 741b 1639 ea33 5e3a
00000100: fbcf c43a 8d58 ebb8 7e66 66ba 7955 dfb9
00000110: 2aec 98ba ad06 beba 0ae8 90b9 b255 4bba
00000120: 74ed 9aba fa4b 8dba 0c6a b0ba af6b 5eb9
00000130: 0a03 9e3a 413f 003a ec22 d43a 52c9 223b
00000140: d61a b53a 15ef 2a3b 602a b83a ebd6 6f3a
00000150: e053 16ba 81c0 bbb9 0524 41ba 0084 fb38
00000160: 6f16 653a f675 3439 5deb 0f3a 2d14 c53a
00000170: 9846 9b3a da0d a93a 2a67 d73a 86c3 243b
00000180: 19b0 123b 6aa1 193b 05e0 293b 4fb2 353b
00000190: 506a f23a b09b 893a c67e 9c3a e14c 1d3b
000001a0: 852b 343b 7c50 353b 9377 193b 613e 123b
000001b0: b1a7 c03a 68e3 083b 3e15 033b ba88 203b
000001c0: 9ea3 133b a735 6f3b c146 803b 6fea 7d3b
000001d0: daa2 2d3b 3de8 913a c692 a53a c1fe de3a
000001e0: e7ab 323b 0d49 1c3b 8582 373b 88a3 4d3b
000001f0: 3f7f f63a c9c3 023b 0ab4 d63a 92de 063b
00000200: 17b9 2b3b 6555 263b a0a4 993a 8a9c c43a
00000210: 6925 d93a c08c 203a 55e9 9839 9399 c43a
00000220: 587b 233b 18ec 453b 086a 1e3b 3f6c 343b
00000230: 3066 f13a b989 0c3b c290 023b e046 2c3b
00000240: f125 933a 364d bb3a 87c9 fb39 8682 193a
00000250: 1185 a9b9 51f2 26ba 9530 b7ba 65c1 56ba
00000260: 2f1b 5dba a805 8a39 735e 203a 239a 923a
00000270: 3361 513a fb0f 263a ad79 693a 0db6 8d3a
00000280: 27ee c239 adec 80b9 ba19 5fba f566 8bba
00000290: 6387 1eba bec6 45ba 9010 54ba b2b5 0b37
000002a0: 550e 0aba 57d7 eeb8 7bc4 23ba 4bf9 113a
000002b0: 95a1 953a 2e9e e839 11f0 9439 5d57 c039
000002c0: 7fab 60ba d448 85ba 3b96 74b9 f17c 18ba
000002d0: a3f6 7ab8 db5a 3638 17fb a838 34f8 79b9
000002e0: 473c 05ba a1eb 5e39 1af3 4dba 8363 07ba
000002f0: c9d5 cfb8 89c0 7a38 7816 67b9 0fe1 2cba
00000300: 64e7 11ba ae44 4fba e1ab dbb9 8ece d2b9
00000310: bd2d d6b9 dafc 5fb8 cb20 8e39 dd88 b039
00000320: a928 853a 087e d839 dd20 82b9 32ce f738
00000330: b115 9236 9e89 2737 af94 e337 5e02 02ba
00000340: 0f86 1b39 e5b2 6b37 3a0c ecb9 703b 96b9
00000350: ec1b 25b9 3838 5439 b1bc 6f39 0197 8cb9
00000360: 7071 1439 a473 beb9 0992 35ba 610e fcb7
00000370: 3938 3a3a d71a 7e39 cf01 c3b8 fd1a 44b9
00000380: e8b7 c439 7827 52b9 2b47 f7b9 6a2a 9938
00000390: de36 153a 1ecf 3c3a 3da8 603a 2546 4f3a
000003a0: 24ed e839 3fdf 80b9 ecc1 e3b9 861d b0b9
000003b0: f128 463a acb8 523a 8b4f 5e3a 5674 903a
000003c0: a227 c539 f40b 8db9 b679 543a 471f 8f3a
000003d0: 4dc5 593a 52a1 583a 0ac5 393a d6b2 1b3a
000003e0: 5798 003b cfb7 143a 1de6 a839 2767 6339
000003f0: 17a5 8139 8b1f 4e3a 5d89 4f3a 4df7 b83a
