src/lightning_logs/version_44/checkpoints/epoch=2-step=4799.ckpt (torch, 708311 bytes, 24 tensors)

cnv.weight f4 [128, 3, 5, 5]
-0.040359776 0.005708003 -0.066884734 0.1112898 0.02051277 0.029660052 0.0751247 -0.06720795
0.02080565 0.06339445 0.02317417 -0.020220524 -0.037914105 -0.02349699 -0.015342267 0.05619964
-0.029351246 0.029735968 0.04413352 0.084222056 -0.010396562 -0.03138928 0.06735852 0.09164251
0.01592961 0.10073305 -0.109527394 0.0010368013 0.055809576 0.0677153 -0.063139424 0.0040094303
0.07250888 0.07036864 -0.062363006 0.05321505 -0.08091433 -0.0728765 -0.06499763 -0.07916809
-0.089485146 -0.0797868 0.08044112 -0.078099646 0.064270474 0.09198914 0.06723402 -0.06792256
-0.015295796 0.062519774 -0.059264548 -0.065605484 -0.014079553 0.085898384 0.0077811647 -0.07265808
-0.10263306 -0.09843864 0.022703595 0.05165389 -0.0709117 -0.008124522 -0.073492296 0.030709503
-0.057457674 0.11154839 -0.034206446 -0.06147006 0.09442684 -0.042090297 -0.086096466 -0.015909417
0.006960696 -0.0955766 0.06000653 -0.065690115 0.03386806 -0.107948445 -0.06641477 -0.03789318
-0.033104137 -0.096266836 -0.0475124 0.075720355 -0.074495815 0.10423101 -0.09849962 0.032980207
-0.045238487 0.0317627 0.081319645 -0.09498612 0.04615187 -0.09183133 -0.005149828 0.000763564
-0.014016908 -0.025812844 -0.0051872 0.0467498 -0.022751126 -0.074109554 0.03694134 -0.108965404
0.106734455 -0.09734101 0.05509302 0.110136665 0.058320098 -0.08791793 -0.029073577 -0.025982236
-0.093372874 0.041466437 -0.047557358 0.001399553 -0.04570014 -0.03735019 -0.05132269 -0.054704417
0.041076787 -0.110677026 0.035335086 -0.10624732 -0.04353298 -0.013024981 -0.028535567 -0.02996506
-0.025535643 0.10282065 -0.043348953 -0.074571796 0.014811912 0.07314539 0.10670156 0.068456516
-0.09770452 0.010815503 0.04231398 0.11017499 0.04944838 -0.06631399 -0.014167016 0.049762692
-0.08193751 -0.11532267 -0.015794616 -0.10967749 0.10000846 0.058202736 -0.10608102 -0.023479013
0.073314026 -0.0674567 -0.074687615 0.0788516 -0.086398736 0.071996555 -0.006361267 0.09841711
-0.050488953 0.030828146 0.10626201 0.0466712 -0.056534737 -0.027197998 0.0044020936 0.036124695
0.05225704 -0.0019855197 -0.10129197 -0.095053 -0.05044036 -0.11516984 0.042732276 0.07246159
-0.027324926 -0.092594765 0.08731052 0.11481821 -0.05700904 0.0037020969 0.10028385 0.0056569343
0.045079265 0.089394815 0.050975878 0.034768958 0.007503798 -0.09757531 0.0707567 -0.026659219
-0.10659916 -0.009587739 0.11534257 -0.006353875 -0.06534547 -0.03750031 -0.029798599 -0.09876783
0.046659637 -0.058349747 0.0043594907 -0.040153354 -0.10418839 -0.013140512 0.08749003 0.037550043
0.010914983 0.008869599 0.048111524 0.08037054 0.0053967186 -0.009004951 0.049705774 0.10775577
0.07987666 0.045629155 0.052389238 -0.040801734 0.08309036 0.0798406 -0.00033469847 0.067310214
-0.041656837 0.074873924 0.051553227 0.06560071 -0.056457818 -0.07899271 -0.060326044 -0.0803184
-0.025805093 -0.10899694 0.016007686 -0.11082536 0.007977621 -0.062234137 0.05486777 -0.01004624
-0.01119012 0.10810812 0.056752887 0.008662723 -0.07508217 0.05278826 0.028360888 -0.10750541
0.07232379 -0.029016038 -0.017625196 -0.0011734475 -0.036526717 0.08458603 -0.024660416 0.06327048
00000000: 4b50 25bd 330a bb3b ddfa 88bd e8eb e33d
00000010: 660a a83c a3f9 f23c fbda 993d 52a4 89bd
00000020: 9c70 aa3c f3d4 813d c2d7 bd3c 83a5 a5bc
00000030: d24b 1bbd c27c c0bc 225e 7bbc 9831 663d
00000040: 0672 f0bc d898 f33c 5ac5 343d 9d7c ac3d
00000050: 5756 2abc 0c92 00bd 44f3 893d 11af bb3d
00000060: d07e 823c 214d ce3d e64f e0bd 47e5 873a
00000070: 9598 643d 52ae 8a3d 3e4f 81bd 8a61 833b
00000080: 897f 943d 6f1d 903d 5a70 7fbd 06f8 593d
00000090: 6ab6 a5bd 4640 95bd 7a1d 85bd e122 a2bd
000000a0: fd43 b7bd 4367 a3bd 50be a43d b5f2 9fbd
000000b0: 3da0 833d cd64 bc3d fdb1 893d fc1a 8bbd
000000c0: 389b 7abc 5e0a 803d 62bf 72bd 2b5c 86bd
000000d0: edad 66bc 7eeb af3d 24f9 fe3b c2cd 94bd
000000e0: 4831 d2bd 339a c9bd e4fc b93c 0893 533d
000000f0: 273a 91bd b71c 05bc 2183 96bd 7f92 fb3c
00000100: bd58 6bbd 7b73 e43d 0f1c 0cbd 08c8 7bbd
00000110: dc62 c13d e066 2cbd 5853 b0bd 7754 82bc
00000120: 8d16 e43b aabd c3bd 68c9 753d 8a88 86bd
00000130: 3cb9 0a3d 1314 ddbd 7804 88bd e135 1bbd
00000140: 3498 07bd 8c27 c5bd 5d9c 42bd 4613 9b3d
00000150: 4391 98bd 1177 d53d 2bba c9bd 4116 073d
00000160: fe4b 39bd 9b19 023d ea8a a63d 1588 c2bd
00000170: be09 3d3d 1012 bcbd e3bf a8bb ea29 483a
00000180: 2ca7 65bc 7575 d3bc 63f9 a9bb b87c 3f3d
00000190: 9260 babc c0c6 97bd cd4f 173d 4129 dfbd
000001a0: 9897 da3d b95a c7bd 38a9 613d 558f e13d
000001b0: 0ee1 6e3d 510e b4bd b62b eebc b3d8 d4bc
000001c0: 473a bfbd b6d8 293d 81cb 42bd 3571 b73a
000001d0: 1230 3bbd 83fc 18bd be37 52bd bd11 60bd
000001e0: 2240 283d a3aa e2bd 86bb 103d 3298 d9bd
000001f0: a34f 32bd bb66 55bc 6cc3 e9bc 4979 f5bc
00000200: 2030 d1bc a293 d23d ac8e 31bd 19b9 98bd
00000210: a9ad 723c 40cd 953d 5986 da3d ee32 8c3d
00000220: 4f19 c8bd 8233 313c 6d51 2d3d 6da3 e13d
00000230: 628a 4a3d a1cf 87bd c61c 68bc f7d3 4b3d
00000240: dace a7bd 4b2e ecbd b663 81bc 989e e0bd
00000250: 3cd1 cc3d fe65 6e3d 0141 d9bd 0f57 c0bc
00000260: aa25 963d bd26 8abd d2f5 98bd f37c a13d
00000270: d2f1 b0bd ee72 933d 2d72 d0bb e98e c93d
00000280: 81cd 4ebd 4f8b fc3c e69f d93d 4d2a 3f3d
00000290: f890 67bd 56ce debc 703f 903b 7df7 133d
000002a0: 7a0b 563d 7e1f 02bb 2a72 cfbd 26ab c2bd
000002b0: 8d9a 4ebd 2ade ebbd 0a08 2f3d be66 943d
000002c0: 86d8 dfbc 53a2 bdbd dccf b23d cf25 eb3d
000002d0: 5082 69bd e19e 723b 9f61 cd3d ce5d b93b
000002e0: 09a5 383d a114 b73d 15cc 503d e569 0e3d
000002f0: 6ce2 f53b 90d5 c7bd e4e8 903d 6f64 dabc
00000300: a950 dabd e415 1dbc ba38 ec3d 2b34 d0bb
00000310: d9d3 85bd ed99 19bd 311c f4bc ca46 cabd
00000320: 2d1e 3f3d 2500 6fbd 0fda 8e3b d877 24bd
00000330: b960 d5bd 4d4b 57bc f92d b33d 13ce 193d
00000340: c2d4 323c cb51 113c 9710 453d 4f99 a43d
00000350: f5d6 b03b 8189 13bc 4898 4b3d 0faf dc3d
00000360: 6096 a33d a3e5 3a3d 1996 563d b81f 27bd
00000370: 472b aa3d 7883 a33d 787a afb9 f0d9 893d
00000380: 5ca0 2abd 8057 993d 7a29 533d aa59 863d
00000390: 5040 67bd eec6 a1bd 7118 77bd f97d a4bd
000003a0: 3465 d3bc ca39 dfbd 8d22 833c 68f8 e2bd
000003b0: 91b4 023c 39e9 7ebd 07bd 603d fc98 24bc
000003c0: c456 37bc ca67 dd3d b775 683d 18ee 0d3c
000003d0: aec4 99bd 8138 583d 1855 e83c cc2b dcbd
000003e0: 7f1e 943d 0bb3 edbc b762 90bc 5dce 99ba
000003f0: 0a9d 15bd 713b ad3d a404 cabc f493 813d

cnv.bias f4 [128]
-0.03868269 -0.11365635 -0.0031680798 -0.06668675 -0.057216287 0.102074236 -0.029236006 -0.09296781
0.03903786 0.025057402 0.023839947 -0.028040092 -0.0111879725 0.05267832 -0.03407952 -0.027235577
0.102261886 0.013275492 0.10974597 -0.025073534 -0.06951229 0.11061547 0.011736168 0.051834807
0.11264745 -0.061138008 0.082203805 0.04129871 -0.08164307 0.091551386 0.11510364 -0.03385056
-0.03270741 -0.08114001 0.08975856 -0.09136591 0.06121669 -0.014602351 -0.064050235 -0.10303448
-0.11055697 -0.08722183 0.08465014 -0.021165937 -0.10445614 0.07763285 -0.087808475 -0.023378044
-0.032230273 0.018843243 -0.03043752 -0.061052416 -0.093933225 -0.04692339 -0.071683235 0.10496051
-0.0020351429 0.0023068385 0.074495845 0.10470927 0.08351798 -0.08666378 0.10249288 -0.0042660944
0.023769386 -0.10894034 0.06526069 0.05119261 0.059115954 0.065849416 0.048215274 0.08327278
0.086688794 -0.0029396615 0.05645436 0.030365651 -0.05484269 -0.08467347 0.074419804 -0.0094554145
-0.006457788 0.110437654 -0.08199731 0.10184102 0.103757106 0.048543777 0.055394325 -0.063279815
0.11108811 -0.035737168 0.0013358895 -0.10622702 0.10707397 -0.02336326 -0.05188915 -0.0722279
-0.037886836 -0.0073025525 -0.039496236 -0.045220867 -0.007904528 -0.061320256 0.051692188 -0.097528644
-0.109444045 0.02040993 -0.110377304 0.048568733 0.06933235 -0.059028808 0.09857084 0.033262793
0.04723861 -0.027334508 -0.09602433 -0.05015764 0.09495618 0.031019645 -0.062852204 -0.05338319
0.113877006 0.015405545 0.040203955 0.0867646 -0.10823115 0.011165618 -0.035995275 -0.037736714
00000000: be71 1ebd a9c4 e8bd 8f9f 4fbb 1093 88bd
00000010: a05b 6abd 4c0c d13d 5980 efbc e865 bebd
00000020: 2ae6 1f3d 2e45 cd3c fe4b c33c 56b4 e5bc
00000030: c24d 37bc 39c5 573d f796 0bbd 251d dfbc
00000040: ae6e d13d 7381 593c 7fc2 e03d 0367 cdbc
00000050: 765c 8ebd 5d8a e23d 0e49 403c bc50 543d
00000060: b5b3 e63d d96b 7abd 785a a83d d628 293d
00000070: 7b34 a7bd 4b7f bb3d 75bb eb3d e3a6 0abd
00000080: 35f8 05bd bc2c a6bd 56d3 b73d 0d1e bbbd
00000090: 5abe 7a3d b33e 6fbc c52c 83bd be03 d3bd
000000a0: b16b e2bd 5ca1 b2bd 0d5d ad3d 3064 adbc
000000b0: 1aed d5bd f9fd 9e3d eed4 b3bd 5083 bfbc
000000c0: e403 04bd 255d 9a3c 1b58 f9bc 1912 7abd
000000d0: 1060 c0bd be32 40bd a9ce 92bd 89f5 d63d
000000e0: 0860 05bb 542e 173b 4791 983d d071 d63d
000000f0: 7a0b ab3d c87c b1bd c9e7 d13d 98ca 8bbb
00000100: 04b8 c23c 1d1c dfbd 66a7 853d 58af 513d
00000110: 9223 723d 0fdc 863d 617d 453d eb8a aa3d
00000120: e589 b13d 56a7 40bb b03c 673d 63c1 f83c
00000130: baa2 60bd 4969 adbd 6969 983d e2ea 1abc
00000140: da9b d3bb 232d e23d 35ee a7bd 0692 d03d
00000150: 9b7e d43d d7d5 463d 29e5 623d d998 81bd
00000160: 2a82 e33d 2361 12bd 0319 af3a 8d8d d9bd
00000170: 9949 db3d 4f64 bfbc b889 54bd 39ec 93bd
00000180: 3a2f 1bbd 404a efbb cec6 21bd 8439 39bd
00000190: fe81 01bc f32a 7bbd 30bb 533d 19bd c7bd
000001a0: 3324 e0bd ba32 a73c 7f0d e2bd 02f0 463d
000001b0: 1efe 8d3d 31c8 71bd 82df c93d 913e 083d
000001c0: 467d 413d 9eec dfbc 67a8 c4bd 1972 4dbd
000001d0: 6378 c23d e91c fe3c a8b8 80bd 55a8 5abd
000001e0: 5938 e93d 8a67 7c3c e7ac 243d a3b1 b13d
000001f0: 4ba8 ddbd ffef 363c c86f 13bd d091 1abd

bn.weight f4 [128]
1.0 1.0 1.0 1.0 1.0 1.0 1.0 1.0
1.0 1.0 1.0 1.0 1.0 1.0 1.0 1.0
1.0 1.0 1.0 1.0 1.0 1.0 1.0 1.0
1.0 1.0 1.0 1.0 1.0 1.0 1.0 1.0
1.0 1.0 1.0 1.0 1.0 1.0 1.0 1.0
1.0 1.0 1.0 1.0 1.0 1.0 1.0 1.0
1.0 1.0 1.0 1.0 1.0 1.0 1.0 1.0
1.0 1.0 1.0 1.0 1.0 1.0 1.0 1.0
1.0 1.0 1.0 1.0 1.0 1.0 1.0 1.0
1.0 1.0 1.0 1.0 1.0 1.0 1.0 1.0
1.0 1.0 1.0 1.0 1.0 1.0 1.0 1.0
1.0 1.0 1.0 1.0 1.0 1.0 1.0 1.0
1.0 1.0 1.0 1.0 1.0 1.0 1.0 1.0
1.0 1.0 1.0 1.0 1.0 1.0 1.0 1.0
1.0 1.0 1.0 1.0 1.0 1.0 1.0 1.0
1.0 1.0 1.0 1.0 1.0 1.0 1.0 1.0
00000000: 0000 803f 0000 803f 0000 803f 0000 803f
00000010: 0000 803f 0000 803f 0000 803f 0000 803f
00000020: 0000 803f 0000 803f 0000 803f 0000 803f
00000030: 0000 803f 0000 803f 0000 803f 0000 803f
00000040: 0000 803f 0000 803f 0000 803f 0000 803f
00000050: 0000 803f 0000 803f 0000 803f 0000 803f
00000060: 0000 803f 0000 803f 0000 803f 0000 803f
00000070: 0000 803f 0000 803f 0000 803f 0000 803f
00000080: 0000 803f 0000 803f 0000 803f 0000 803f
00000090: 0000 803f 0000 803f 0000 803f 0000 803f
000000a0: 0000 803f 0000 803f 0000 803f 0000 803f
000000b0: 0000 803f 0000 803f 0000 803f 0000 803f
000000c0: 0000 803f 0000 803f 0000 803f 0000 803f
000000d0: 0000 803f 0000 803f 0000 803f 0000 803f
000000e0: 0000 803f 0000 803f 0000 803f 0000 803f
000000f0: 0000 803f 0000 803f 0000 803f 0000 803f
00000100: 0000 803f 0000 803f 0000 803f 0000 803f
00000110: 0000 803f 0000 803f 0000 803f 0000 803f
00000120: 0000 803f 0000 803f 0000 803f 0000 803f
00000130: 0000 803f 0000 803f 0000 803f 0000 803f
00000140: 0000 803f 0000 803f 0000 803f 0000 803f
00000150: 0000 803f 0000 803f 0000 803f 0000 803f
00000160: 0000 803f 0000 803f 0000 803f 0000 803f
00000170: 0000 803f 0000 803f 0000 803f 0000 803f
00000180: 0000 803f 0000 803f 0000 803f 0000 803f
00000190: 0000 803f 0000 803f 0000 803f 0000 803f
000001a0: 0000 803f 0000 803f 0000 803f 0000 803f
000001b0: 0000 803f 0000 803f 0000 803f 0000 803f
000001c0: 0000 803f 0000 803f 0000 803f 0000 803f
000001d0: 0000 803f 0000 803f 0000 803f 0000 803f
000001e0: 0000 803f 0000 803f 0000 803f 0000 803f
000001f0: 0000 803f 0000 803f 0000 803f 0000 803f

bn.bias f4 [128]
0.0 0.0 0.0 0.0 0.0 0.0 0.0 0.0
0.0 0.0 0.0 0.0 0.0 0.0 0.0 0.0
0.0 0.0 0.0 0.0 0.0 0.0 0.0 0.0
0.0 0.0 0.0 0.0 0.0 0.0 0.0 0.0
0.0 0.0 0.0 0.0 0.0 0.0 0.0 0.0
0.0 0.0 0.0 0.0 0.0 0.0 0.0 0.0
0.0 0.0 0.0 0.0 0.0 0.0 0.0 0.0
0.0 0.0 0.0 0.0 0.0 0.0 0.0 0.0
0.0 0.0 0.0 0.0 0.0 0.0 0.0 0.0
0.0 0.0 0.0 0.0 0.0 0.0 0.0 0.0
0.0 0.0 0.0 0.0 0.0 0.0 0.0 0.0
0.0 0.0 0.0 0.0 0.0 0.0 0.0 0.0
0.0 0.0 0.0 0.0 0.0 0.0 0.0 0.0
0.0 0.0 0.0 0.0 0.0 0.0 0.0 0.0
0.0 0.0 0.0 0.0 0.0 0.0 0.0 0.0
0.0 0.0 0.0 0.0 0.0 0.0 0.0 0.0
00000000: 0000 0000 0000 0000 0000 0000 0000 0000
00000010: 0000 0000 0000 0000 0000 0000 0000 0000
00000020: 0000 0000 0000 0000 0000 0000 0000 0000
00000030: 0000 0000 0000 0000 0000 0000 0000 0000
00000040: 0000 0000 0000 0000 0000 0000 0000 0000
00000050: 0000 0000 0000 0000 0000 0000 0000 0000
00000060: 0000 0000 0000 0000 0000 0000 0000 0000
00000070: 0000 0000 0000 0000 0000 0000 0000 0000
00000080: 0000 0000 0000 0000 0000 0000 0000 0000
00000090: 0000 0000 0000 0000 0000 0000 0000 0000
000000a0: 0000 0000 0000 0000 0000 0000 0000 0000
000000b0: 0000 0000 0000 0000 0000 0000 0000 0000
000000c0: 0000 0000 0000 0000 0000 0000 0000 0000
000000d0: 0000 0000 0000 0000 0000 0000 0000 0000
000000e0: 0000 0000 0000 0000 0000 0000 0000 0000
000000f0: 0000 0000 0000 0000 0000 0000 0000 0000
00000100: 0000 0000 0000 0000 0000 0000 0000 0000
00000110: 0000 0000 0000 0000 0000 0000 0000 0000
00000120: 0000 0000 0000 0000 0000 0000 0000 0000
00000130: 0000 0000 0000 0000 0000 0000 0000 0000
00000140: 0000 0000 0000 0000 0000 0000 0000 0000
00000150: 0000 0000 0000 0000 0000 0000 0000 0000
00000160: 0000 0000 0000 0000 0000 0000 0000 0000
00000170: 0000 0000 0000 0000 0000 0000 0000 0000
00000180: 0000 0000 0000 0000 0000 0000 0000 0000
00000190: 0000 0000 0000 0000 0000 0000 0000 0000
000001a0: 0000 0000 0000 0000 0000 0000 0000 0000
000001b0: 0000 0000 0000 0000 0000 0000 0000 0000
000001c0: 0000 0000 0000 0000 0000 0000 0000 0000
000001d0: 0000 0000 0000 0000 0000 0000 0000 0000
000001e0: 0000 0000 0000 0000 0000 0000 0000 0000
000001f0: 0000 0000 0000 0000 0000 0000 0000 0000

bn.running_mean f4 [128]
0.068047985 0.11840943 0.106762104 0.19324452 0.08911725 0.21593337 0.012134352 0.006084576
0.10249229 0.13799474 0.10971959 0.09579204 0.06819422 0.1508371 0.16619642 0.13219371
0.15780315 0.25458944 0.18778062 0.06673005 0.051267788 0.21372001 0.059506528 0.2542718
0.15404242 0.025614671 0.16103548 0.118504286 0.032583382 0.18907522 0.1303539 0.059137084
0.082796864 0.029789807 0.18765302 0.023366392 0.08552621 0.11780647 0.029689433 0.05306412
0.0123501215 0.044768583 0.100723475 0.1255117 0.012582492 0.10426588 0.020356463 0.10988179
0.07379916 0.05147229 0.053786077 0.02358483 0.032561593 0.0485994 0.06727892 0.14474936
0.094643615 0.06609407 0.1076993 0.10869022 0.1813165 0.09481973 0.14290725 0.18746603
0.06041519 0.038103897 0.107675105 0.14520255 0.1232319 0.13036211 0.120039694 0.19751644
0.15115082 0.12506203 0.16619536 0.079326265 0.03128377 0.051174838 0.11526348 0.15122809
0.1656251 0.23142561 0.13090368 0.1192369 0.11613778 0.0924804 0.11840371 0.098960094
0.13204895 0.047426745 0.11330837 0.06216677 0.14723586 0.17161588 0.049524486 0.071055
0.03423921 0.05318531 0.046373807 0.08118411 0.056203928 0.02719141 0.10024019 0.05529302
0.086523585 0.13655506 0.19256672 0.09404082 0.14582035 0.08418808 0.15463488 0.09397743
0.081528366 0.025427612 0.032331213 0.10495102 0.21467844 0.058559723 0.030136388 0.049746223
0.11959937 0.13801578 0.07051716 0.13775311 0.023254387 0.12444318 0.056442063 0.08114664
00000000: be5c 8b3d a580 f23d 17a6 da3d e4e1 453e
00000010: 1b83 b63d a31d 5d3e 29cf 463c 1f61 c73b
00000020: 7ae7 d13d 7e4e 0d3e aab4 e03d 9e2e c43d
00000030: 69a9 8b3d 0a75 1a3e 652f 2a3e ca5d 073e
00000040: 2697 213e 8c59 823e 9049 403e c4a9 883d
00000050: 2cfe 513d 6bd9 5a3e 1ebd 733d ea2f 823e
00000060: 4cbd 1d3e dcd5 d13c 7ce6 243e 60b2 f23d
00000070: 2776 053d ef9c 413e 7e7b 053e ba39 723d
00000080: 6791 a93d c109 f43c 1d28 403e e06a bf3c
00000090: 5e28 af3d 8544 f13d 4137 f33c c359 593d
000000a0: 2a58 4a3c 435f 373d 1c48 ce3d 2486 003e
000000b0: cc26 4e3c 5a89 d53d 99c2 a63c b409 e13d
000000c0: 0424 973d 9cd4 523d ca4e 5c3d f934 c13c
000000d0: 4e5f 053d 2a10 473d 88c9 893d 2d39 143e
000000e0: 83d4 c13d 545c 873d 7391 dc3d fa98 de3d
000000f0: 08ab 393e d930 c23d 4756 123e 18f7 3f3e
00000100: eb75 773d d512 1c3d c484 dc3d faaf 143e
00000110: 0261 fc3d a57d 053e 5fd7 f53d c041 4a3e
00000120: 48c7 1a3e 4310 003e 1e2f 2a3e cf75 a23d
00000130: 6923 003d b59c 513d 420f ec3d 89db 1a3e
00000140: a099 293e d6fa 6c3e 9d0b 063e 7a32 f43d
00000150: a5d9 ed3d 5d66 bd3d a57d f23d 97ab ca3d
00000160: d737 073e 8c42 423d 380e e83d 95a2 7e3d
00000170: ffc4 163e 13bc 2f3e 30da 4a3d 4985 913d
00000180: 6a3e 0c3d d7d8 593d 76f2 3d3d db43 a63d
00000190: 1736 663d 85c0 de3c bb4a cd3d ef7a 623d
000001a0: 4733 b13d 17d5 0b3e 3630 453e 7998 c03d
000001b0: ee51 153e cd6a ac3d 9b58 1e3e 3d77 c03d
000001c0: 58f8 a63d 914d d03c bc6d 043d 8ff0 d63d
000001d0: aad4 5b3e 52dc 6f3d 96e0 f63c b2c2 4b3d
000001e0: 84f0 f43d 0254 0d3e 4d6b 903d 270f 0d3e
000001f0: fc7f be3c 11dc fe3d cb2f 673d 3630 a63d

bn.running_var f4 [128]
0.012723093 0.041560117 0.023680044 0.08055595 0.022123234 0.08177743 0.0014798073 0.0009347861
0.018222742 0.03491443 0.021458395 0.017954707 0.0120311165 0.039357334 0.06093188 0.04485336
0.02555087 0.14777581 0.05288168 0.012593441 0.010430948 0.05535372 0.008707025 0.10496964
0.02355711 0.0032337767 0.04116818 0.03030375 0.005151304 0.047685232 0.011707589 0.01173304
0.017303793 0.0058354787 0.048804138 0.005140764 0.010824388 0.033716556 0.0038784482 0.0108347675
0.0019919483 0.008427792 0.010811829 0.030253936 0.00200946 0.011257569 0.0038343328 0.031071546
0.016000085 0.0064633205 0.012941256 0.0034414707 0.005621715 0.007484759 0.012327412 0.025968775
0.02064714 0.009901447 0.016202671 0.0076899477 0.052755687 0.025848147 0.02335326 0.068580285
0.0074439235 0.0069398214 0.015177899 0.030473279 0.026228888 0.020753346 0.029235987 0.06673233
0.02555021 0.03152808 0.053508673 0.011227643 0.00534418 0.011941394 0.01519717 0.056345444
0.049087923 0.089271285 0.049736984 0.009655219 0.010594388 0.01177542 0.02299502 0.027199805
0.017846808 0.006760312 0.03105467 0.01570208 0.028909694 0.07470264 0.009220626 0.015353631
0.0053921575 0.0083717005 0.00783631 0.01568738 0.00835046 0.007322238 0.022170309 0.0104878405
0.024681197 0.03697081 0.10561931 0.018484488 0.030261926 0.01948396 0.03259204 0.017604928
0.009192435 0.0031925335 0.005471822 0.031291705 0.08132493 0.0058856537 0.00387797 0.010012959
0.005967387 0.04326131 0.0076050805 0.021354241 0.0051872768 0.029093439 0.010796071 0.022067964
00000000: 8574 503c f13a 2a3d a7fc c13c 85fa a43d
00000010: c93b b53c ed7a a73d 18f6 c13a 6f0c 753a
00000020: dc47 953c 6f02 0f3d 84c9 af3c c015 933c
00000030: 291e 453c 2835 213d b593 793d 28b8 373d
00000040: 0f50 d13c 8b52 173e 769a 583d b854 4e3c
00000050: 91e6 2a3c 95ba 623d e9a7 0e3c 53fa d63d
00000060: d7fa c03c c5ed 533b f79f 283d 923f f83c
00000070: 45cc a83b 9751 433d 30d1 3f3c f03b 403c
00000080: afc0 8d3c 8b37 bf3b d9e6 473d db73 a83b
00000090: c658 313c 5f1a 0a3d 902d 7e3b 4f84 313c
000000a0: 598b 023b b914 0a3c 1924 313c 1ad7 f73c
000000b0: 25b1 033b ab71 383c 6e49 7b3b c189 fe3c
000000c0: 9c12 833c 43ca d33b 9007 543c 4c8a 613b
000000d0: 5d36 b83b b642 f53b eaf8 493c 78bc d43c
000000e0: 3124 a93c ae39 223c 77bb 843c f5fb fb3b
000000f0: 5916 583d 7ebf d33c 564f bf3c d273 8c3d
00000100: 28ec f33b 7167 e33b b9ac 783c 19a3 f93c
00000110: f7dd d63c ec02 aa3c 4f80 ef3c f6aa 883d
00000120: ad4e d13c 9723 013d e92b 5b3d 26f4 373c
00000130: 3b1e af3b d6a5 433c 8dfd 783c 7bca 663d
00000140: 6b10 493d ddd3 b63d 02b9 4b3d ec30 1e3c
00000150: 1594 2d3c b1ed 403c 0d60 bc3c 20d2 de3c
00000160: 7833 923c 9b85 dd3b 5d66 fe3c a6a1 803c
00000170: 06d4 ec3c b3fd 983d 1c12 173c cc8d 7b3c
00000180: b2b0 b03b 7529 093c de63 003c d282 803c
00000190: 5ed0 083c 62ef ef3b 829e b53c 31d5 2b3c
000001a0: 3930 ca3c b46e 173d f04e d83d c86c 973c
000001b0: dce7 f73c d39c 9f3c 3b7f 053d 3638 903c
000001c0: de9b 163c d339 513b f84c b33b bb2b 003d
000001d0: af8d a63d 71dc c03b 8a25 7e3b 650d 243c
000001e0: 128a c33b c532 313d 0a34 f93b 17ef ae3c
000001f0: 08fa a93b 5d55 ee3c 01e2 303c e0c7 b43c

fc1.weight f4 [64, 768]
-0.022093808 -0.01789768 -0.014884984 -0.088522896 -0.06716785 -0.06505079 0.010572158 -0.008296212
0.006837228 -0.053393975 0.011523467 0.010166464 0.04898584 0.060649134 -0.0016958232 -0.016307369
-0.042815886 0.0017492712 -0.030610884 -0.017529648 -0.0632328 -0.05784581 -0.03886608 -0.00052501116
-0.041451365 -0.047746066 0.010292278 -0.050203588 -0.04898709 -0.05814656 0.0038267744 0.021166377
0.011025283 0.0016287016 -0.02317474 0.023765242 -0.01969312 -0.017998228 -0.046329714 -0.018042115
-0.027480716 -0.027540473 -0.02752126 -0.022518536 -0.08697364 -0.0724919 -0.08354998 -0.04706373
0.07906348 -0.0064917607 0.001528926 -0.0066738045 -0.00028483119 -0.0023247865 -0.022466302 -0.02265843
-0.04211096 0.005454715 -0.027798716 -0.07650711 -0.12494414 -0.036304764 -0.07822673 -0.009138899
-0.0041966364 0.0132256765 0.05183327 0.021978993 0.047412176 0.017729267 -0.06597123 -0.04720873
0.008676978 -0.07387091 -0.03907035 -0.09960519 -0.06373609 -0.06634351 -0.0898824 -0.04401877
0.03190938 0.06663611 0.021121949 0.019745983 0.064315975 0.031348635 -0.06439087 -0.07478608
-0.058116723 -0.00094893196 -0.08357757 -0.095980585 -0.0029673222 -0.041420568 0.0009412971 -0.028955597
0.0074673323 -0.027552193 -0.045812763 0.009636932 -0.07148819 -0.0038478957 -0.081232004 -0.044236116
-0.06721584 -0.085455894 -0.09459205 -0.084391765 -0.09293849 -0.022665389 0.00030283228 0.04240523
0.070217304 -0.033589967 -0.0092493035 -0.07950716 -0.024608126 -0.05272662 -0.09725038 -0.12300212
-0.018213272 -0.073955484 -0.010334319 -0.06653697 -0.031430393 -0.006588495 -0.014159703 0.005129131
0.037580702 0.048514046 0.024240961 0.009160773 -0.044302393 -0.08767268 -0.056143396 -0.03394066
-0.031367786 -0.060823977 -0.06709127 0.009429878 0.007859091 -0.01681639 -0.037260458 -0.03625998
-0.044134334 -0.0101829935 -0.01969478 -0.030060705 -0.029451486 -0.059605498 0.022769703 0.036572337
-0.014053961 -0.055209003 -0.09752267 -0.022374207 -0.03395397 -0.052318547 -0.005457898 -0.009673933
0.031467613 0.007908231 -0.045905996 -0.118362136 -0.048887532 0.019536158 0.09675538 -0.031733643
-0.0010772417 0.04704857 -0.00027824828 0.013822563 -0.032012902 -0.069898725 -0.031410642 -0.034651592
0.009737952 -0.072345555 -0.075221956 -0.07011073 -0.0583716 -0.00379999 -0.015457592 0.0075845695
-0.04888094 -0.06808181 -0.055250015 0.014646511 -0.02902862 -0.0018139356 -0.02831827 -0.029566303
-0.049144883 -0.09193352 -0.03352745 -0.017055038 -0.055592384 -0.003219732 -0.007921519 -0.0068450556
0.004661059 -0.10238868 -0.025209194 -0.08134774 -0.059526887 -0.027349554 -0.044073813 0.057868376
-0.025747564 -0.046138376 -0.00010306694 -0.0033638685 -0.01435752 -0.041499656 0.008742104 -0.007696942
0.047433175 -0.016731225 -0.02099736 -0.06773185 -0.09582164 -0.039188005 -0.012723879 0.028471833
-0.00030920721 0.027959194 -0.0066454667 -0.0015639603 -0.049611334 -0.047499403 -0.03189096 -0.0026774507
-0.03250599 -0.060529448 -0.015120341 -0.09230215 -0.13596997 -0.12855028 -0.0045849755 0.0031405482
0.045649793 -0.0013294892 0.025463423 -0.00239441 0.022829117 0.0054638777 -0.059139162 -0.0754334
-0.06272592 -0.010257322 -0.11213153 -0.10756433 0.0026220689 -0.011294372 -0.056069307 -0.021134946
00000000: 13fe b4bc 289e 92bc 26e0 73bc 7e4b b5bd
00000010: 4c8f 89bd 5939 85bd d836 2d3c d6ec 07bc
00000020: d30a e03b a4b3 5abd eccc 3c3c 3e91 263c
00000030: 60a5 483d 3a6b 783d 6246 deba 0897 85bc
00000040: b65f 2fbd cd47 e53a adc3 fabc 569a 8fbc
00000050: 3380 81bd baef 6cbd 0a32 1fbd e7a0 09ba
00000060: e8c8 29bd 6191 43bd f1a0 283c 47a2 4dbd
00000070: b0a6 48bd 162b 6ebd 9fca 7a3b 1c65 ad3c
00000080: 63a3 343c 287a d53a f4d8 bdbc 53af c23c
00000090: 7753 a1bc 0571 93bc 3ac4 3dbd 0fcd 93bc
000000a0: 3d1f e1bc 8f9c e1bc 4474 e1bc cb78 b8bc
000000b0: 3c1f b2bd a276 94bd 401c abbd e6c5 40bd
000000c0: 09ec a13d d6b8 d4bb 3e66 c83a eeaf dabb
000000d0: 6555 95b9 725b 18bb 400b b8bc 2c9e b9bc
000000e0: 8b7c 2cbd 77bd b23b 22ba e3bc c2af 9cbd
000000f0: b7e2 ffbd 4eb4 14bd 5635 a0bd 52bb 15bc
00000100: f083 89bb 82b0 583c 1f4f 543d 4a0d b43c
00000110: 4533 423d f83c 913c ed1b 87bd f15d 41bd
00000120: e229 0e3c a249 97bd 3b08 20bd cefd cbbd
00000130: 1188 82bd 1bdf 87bd 4414 b8bd 074d 34bd
00000140: 69b3 023d 8378 883d f007 ad3c 54c2 a13c
00000150: 18b8 833d 6d67 003d 5cdf 83bd 7229 99bd
00000160: cd0b 6ebd bfc1 78ba b82a abbd 7891 c4bd
00000170: 6877 42bb 9da8 29bd 61c1 763a 4a34 edbc
00000180: 86b0 f43b 23b5 e1bc 2aa6 3bbd 39e4 1d3c
00000190: 6668 92bd fa2c 7cbb f75c a6bd ee30 35bd
000001a0: 75a8 89bd 8003 afbd 7ab9 c1bd 97d5 acbd
000001b0: 8956 bebd c4ac b9bc 76c5 9e39 1bb1 2d3d
000001c0: 17ce 8f3d a295 09bd 648a 17bc a6d4 a2bd
000001d0: fb96 c9bc def7 57bd 352b c7bd 89e8 fbbd
000001e0: 0034 95bc f975 97bd 4751 29bc 8944 88bd
000001f0: 28bd 00bd 4de4 d7bb 19fe 67bc 4512 a83b
00000200: 39ee 193d aab6 463d fb94 c63c 1117 163c
00000210: 6d76 35bd bc8d b3bd 9ef6 65bd 5d05 0bbd
00000220: 827b 00bd 9022 79bd 2667 89bd c67f 1a3c
00000230: 6bc3 003c 87c2 89bc 6c9e 18bd 5885 14bd
00000240: 34c6 34bd 92d6 26bc f356 a1bc de41 f6bc
00000250: 3e44 f1bc e524 74bd 8787 ba3c e0cc 153d
00000260: 9642 66bc d622 62bd f7b9 c7bd 1d4a b7bc
00000270: 5113 0bbd f94b 56bd 2bd8 b2bb 6a7f 1ebc
00000280: 2fe4 003d 8691 013c ed07 3cbd d967 f2bd
00000290: 4b3e 48bd 4b0a a03c af27 c63d 23fb 01bd
000002a0: 3c32 8dba 00b6 403d dae1 91b9 0878 623c
000002b0: f61f 03bd 1027 8fbd 72a8 00bd d4ee 0dbd
000002c0: ee8b 1f3c e829 94bd f80d 9abd 3796 8fbd
000002d0: 0f17 6fbd 4109 79bb d741 7dbc fb87 f83b
000002e0: 6137 48bd 7a6e 8bbd d74d 62bd ebf7 6f3c
000002f0: 6ecd edbc 94c1 edba b7fb e7bc 0835 f2bc
00000300: 254c 49bd a447 bcbd 1454 09bd 02b7 8bbc
00000310: d7b4 63bd 2402 53bb 42c9 01bc 7d4c e0bb
00000320: ccbb 983b 28b1 d1bd 8383 cebc a599 a6bd
00000330: 77d2 73bd 2c0c e0bc be86 34bd 6407 6d3d
00000340: 8eec d2bc 98fb 3cbd a425 d8b8 5974 5cbb
00000350: ce3b 6bbc 8bfb 29bd 0b3b 0f3c a136 fcbb
00000360: 4a49 423d ec0f 89bc a802 acbc ffb6 8abd
00000370: 233e c4bd 9a83 20bd d177 50bc c33d e93c
00000380: 171d a2b9 ae0a e53c 37c2 d9bb cdfd ccba
00000390: 4135 4bbd bc8e 42bd 18a0 02bd 2b78 2fbb
000003a0: 0025 05bd baed 77bd 4fbb 77bc e908 bdbd
000003b0: b63b 0bbe afa2 03be 903d 96bb a8d1 4d3b
000003c0: 47fb 3a3d 4142 aeba ab98 d03c 89eb 1cbb
000003d0: 2104 bb3c 540a b33b e83b 72bd d47c 9abd
000003e0: 7276 80bd 540e 28bc 37a5 e5bd b04a dcbd
000003f0: 04d7 2b3b 080c 39bc eea8 65bd 3223 adbc

fc1.bias f4 [64]
-0.16597462 0.06794928 -0.05503812 0.21510604 0.44113138 -0.018945202 0.084855996 0.09123572
-0.09556705 0.029485507 0.10241612 0.11689138 0.014813223 0.11673682 -0.25552577 0.2878273
-0.16909482 0.082281195 0.07517893 -0.042107757 -0.04502179 0.058682717 0.1045277 0.36933503
0.32068223 -0.043602515 0.17317016 -0.1295953 -0.12957297 -0.2553047 0.102518015 0.05915251
0.20449239 -0.003916057 0.027493855 -0.094666 0.18196419 -0.08965213 0.17461342 0.002418179
0.122703284 0.038727555 0.12649685 -0.05805754 0.1533606 0.11656858 0.08604587 0.12291293
0.3417413 -0.075423695 0.43903124 0.13738614 0.178164 0.14230202 0.3325315 -0.13394123
-0.115707554 0.39992452 0.01969642 -0.1366214 -0.021626372 -0.22482449 0.24437712 0.20511623
00000000: 40f5 29be fe28 8b3d a76f 61bd c244 5c3e
00000010: f9db e13e f832 9bbc fbc8 ad3d cbd9 ba3d
00000020: a8b8 c3bd 978b f13c 8bbf d13d bf64 ef3d
00000030: 29b3 723c b713 ef3d 46d4 82be 1a5e 933e
00000040: 3127 2dbe 0b83 a83d 69f7 993d 2f79 2cbd
00000050: c568 38bd 4a5d 703d 9e12 d63d 7b19 bd3e
00000060: 7630 a43e 8d98 32bd 8553 313e a1b4 04be
00000070: c7ae 04be 4cb7 82be f7f4 d13d e749 723d
00000080: 7466 513e 4452 80bb cb3a e13c 3fe0 c1bd
00000090: d254 3a3e 899b b7bd dccd 323e 507a 1e3b
000000a0: dc4b fb3d c9a0 1e3d 6488 013e becd 6dbd
000000b0: 900a 1d3e 82bb ee3d d138 b03d c6b9 fb3d
000000c0: b7f8 ae3e bd77 9abd b4c8 e03e f4ae 0c3e
000000d0: a070 363e 9fb7 113e 9241 aa3e e427 09be
000000e0: 15f8 ecbd e8c2 cc3e 635a a13c 7be6 0bbe
000000f0: ca29 b1bc 6438 66be ff3d 7a3e fd09 523e

fc2.weight f4 [64, 64]
0.0037553103 -0.030057857 -0.08288618 0.016761625 -0.04428328 0.0015633618 -0.11371529 -0.012978026
-0.056831345 -0.032972056 -0.07643414 -0.08438243 0.029956851 -0.11519726 0.033151828 -0.059715904
-0.13575909 0.07674213 -0.02225056 -0.1292973 -0.16690585 -0.09381171 -0.2121358 -0.05867541
-0.035070438 -0.0063617476 0.032558657 0.0011999817 0.03258345 -0.05788293 -0.078421496 0.037366267
-0.19340394 -0.067705266 -0.04275203 -0.076727495 -0.1555388 -0.107092634 -0.028591037 0.001673675
-0.060906347 0.056597006 -0.051090706 0.10867585 -0.034889206 0.0007864651 0.013631375 -0.04966426
-0.008361367 -0.088720806 -0.0398668 -0.061873678 -0.18621849 0.058928866 -0.16588172 0.13323836
0.04531848 0.039252415 -0.010510411 -0.12554526 -0.15173051 0.045451224 -0.060851425 0.06892247
0.08302511 -0.04839355 -0.06861606 0.0798331 -0.15950893 -0.11980747 0.016157102 -0.0020928711
-0.13556018 0.075584084 0.02720602 0.014887387 0.010933946 0.0062876367 -0.12760606 -0.044195805
-0.12741874 0.037980933 -0.06451325 -0.042041477 -0.06373173 -0.059913717 0.0072406647 -0.17513113
0.050730087 0.006657752 -0.03234912 -0.072567746 -0.011794956 -0.153715 0.035380397 -0.053443063
-0.09449266 0.02232098 -0.04599766 -0.009511425 -0.084329955 -0.11305092 -0.12877828 -0.1045563
-0.12348237 0.037193026 -0.0012324216 0.07268997 -0.0028832653 -0.09278839 0.054224398 0.07059091
-0.09710965 -0.07454719 -0.041861895 -0.04770656 -0.015547714 -0.08242248 0.008020209 0.019953588
-0.015772877 -0.13071688 -0.03306674 -0.014585281 0.039524455 0.016342964 -0.10979935 -0.04196951
0.095320255 -0.15014304 -0.0015496543 -0.10403343 0.034056693 -0.1845562 -0.07179969 -0.14348665
0.07636102 -0.210873 -0.07139825 -0.024853202 0.12221496 0.04932309 0.12732802 -0.027639251
-0.06506101 0.038322397 0.0029400857 0.013006536 -0.17190479 0.004728237 -0.11502608 0.13773434
0.11502062 0.040079776 -0.12590575 -0.066396095 0.085515924 -0.09337987 0.1830051 -0.09073452
-0.1761779 0.079943664 0.17938673 -0.055458367 -0.12569605 -0.23280635 0.078871265 0.12802157
-0.15315259 0.062592804 -0.0885003 0.06380978 -0.19040903 -0.051035076 -0.062590785 -0.11858818
0.033902496 -0.14076881 -0.017793607 -0.06953331 -0.16965188 0.11341331 0.107428804 -0.12099491
0.13752607 0.042515058 -0.14705825 -0.15684122 0.03698031 -0.0010709628 0.11478398 -0.048466608
0.13063352 -0.0067413384 0.055548523 0.0072784238 0.060477767 -0.11060495 0.10194759 0.010198754
0.017222852 -0.0352507 0.06769956 -0.01816215 0.13094114 -0.013015483 -0.044163384 -0.0452423
0.10238713 0.11628589 0.09544506 0.054172456 -0.040875148 0.032197855 -0.032800972 0.08831509
0.030450208 -0.021696094 0.066628724 0.027374975 0.008512979 0.04767643 0.13500866 -0.017153043
-0.04850418 -0.0487171 -0.055313952 0.04968196 0.17205362 -0.046324775 0.12136287 0.055029284
-0.040748 -0.0031849907 0.034864444 0.046412412 0.0615678 0.10752733 -0.04485982 0.10682486
-0.08410479 -0.11550126 0.006383761 0.06041035 0.003603109 -0.04532254 -0.06703035 0.09035884
-0.09989463 -0.106060944 -0.101449974 -0.009941418 -0.0703346 -0.026420252 0.032876607 -0.036956973
00000000: a71b 763b e53b f6bc 3bc0 a9bd ad4f 893c
00000010: 6262 35bd b8e9 cc3a 90e3 e8bd c9a1 54bc
00000020: fcc7 68bd b50d 07bd 8189 9cbd b2d0 acbd
00000030: 1268 f53c 8bec ebbd 36ca 073d aa98 74bd
00000040: 6e04 0bbe fa2a 9d3d ce46 b6bc 8366 04be
00000050: 5ee9 2abe 5b20 c0bd 213a 59be a055 70bd
00000060: 05a6 0fbd 3576 d0bb 3a5c 053d b448 9d3a
00000070: 3976 053d a716 6dbd 739b a0bd 5f0d 193d
00000080: af0b 46be 0fa9 8abd c11c 2fbd 4e23 9dbd
00000090: 9045 1fbe 6253 dbbd c037 eabc 375f db3a
000000a0: ef78 79bd 43d2 673d 7d44 51bd 7291 de3d
000000b0: fce7 0ebd c82a 4e3a 2156 5f3c c06c 4bbd
000000c0: 1dfe 08bc 41b3 b5bd 5f4b 23bd 416f 7dbd
000000d0: 0fb0 3ebe 655f 713d e6dc 29be a36f 083e
000000e0: df9f 393d 24c7 203d dc33 2cbc f08e 00be
000000f0: 3e5f 1bbe 102b 3a3d 583f 79bd 3927 8d3d
00000100: 1209 aa3d 5138 46bd 9486 8cbd 897f a33d
00000110: 4f56 23be 9e5d f5bd e65b 843c 8d28 09bb
00000120: 4ad0 0abe d4cb 9a3d 29df de3c 3aea 733c
00000130: 4b24 333c 8508 ce3b 2aab 02be a906 35bd
00000140: 0f7a 02be e591 1b3d 861f 84bd af33 2cbd
00000150: c885 82bd 1668 75bd 1943 ed3b 9355 33be
00000160: 5aca 4f3d 4629 da3b 8380 04bd 669e 94bd
00000170: a23f 41bc 7767 1dbe 09eb 103d 1de7 5abd
00000180: 5e85 c1bd 7dda b63c 0b68 3cbd cfd5 1bbc
00000190: 2fb5 acbd 3e87 e7bd 74de 03be 9d21 d6bd
000001a0: 53e4 fcbd b757 183d 3589 a1ba 7bde 943d
000001b0: 2af5 3cbb d707 bebd 671a 5e3d f891 903d
000001c0: 6de1 c6bd 32ac 98bd 6177 2bbd f467 43bd
000001d0: d7bb 7ebc 1ecd a8bd 3267 033c b575 a33c
000001e0: 1f36 81bc a5da 05be fd70 07bd 1af7 6ebc
000001f0: 65e4 213d aee1 853c 7bde e0bd 39e8 2bbd
00000200: 4437 c33d 19bf 19be c51d cbba 7b0f d5bd
00000210: 087f 0b3d 4dfc 3cbe b70b 93bd 2aee 12be
00000220: 2b63 9c3d 17ef 57be 3f39 92bd f198 cbbc
00000230: d64b fa3d 0207 4a3d 4762 023e b66b e2bc
00000240: b53e 85bd f2f7 1c3d 74ae 403b 5e19 553c
00000250: cf07 30be 54ef 9a3b cb92 ebbd 3b0a 0d3e
00000260: ee8f eb3d b12a 243d 70ed 00be adfa 87bd
00000270: f922 af3d f23d bfbd b065 3b3e 05d3 b9bd
00000280: fb67 34be 81b9 a33d 28b1 373e 5028 63bd
00000290: 77b6 00be ca64 6ebe 4287 a13d 1618 033e
000002a0: 08d4 1cbe a830 803d a53f b5bd b4ae 823d
000002b0: 96fa 42be 280a 51bd 992f 80bd 5cde f2bd
000002c0: 58dd 0a3d b325 10be e6c3 91bc 7b67 8ebd
000002d0: 39b9 2dbe 3d45 e83d a203 dc3d 2ecc f7bd
000002e0: a2d3 0c3e 4524 2e3d 7096 16be fc9a 20be
000002f0: aa78 173d 8c5f 8cba dd13 eb3d ec84 46bd
00000300: cbc4 053e 72e6 dcbb d986 633d d87f ee3b
00000310: 89b7 773d d984 e2bd e6c9 d03d ad18 273c
00000320: f016 8d3c 0a63 10bd 11a6 8a3d cac8 94bc
00000330: 6f15 063e e43e 55bc aae4 34bd fd4f 39bd
00000340: 58b0 d13d 4c27 ee3d b378 c33d f0e3 5d3d
00000350: b36c 27bd e6e1 033d 505a 06bd 8bde b43d
00000360: b772 f93c 02bc b1bc a474 883d 7c41 e03c
00000370: 067a 0b3c 5c48 433d b63f 0a3e 8a84 8cbc
00000380: 52ac 46bd 958b 47bd e290 62bd 507f 4b3d
00000390: d32e 303e 0cbf 3dbd 198d f83d 6366 613d
000003a0: 60e7 26bd 47bb 50bb 05ce 0e3d f11a 3e3d
000003b0: 842e 7c3d 4a37 dc3d eebe 37bd fec6 da3d
000003c0: 223f acbd ed8b ecbd de2e d13b d870 773d
000003d0: 2322 6c3b 21a4 39bd 3547 89bd 0e0e b93d
000003e0: 8e95 ccbd 7b36 d9bd 01c5 cfbd 54e1 22bc
000003f0: 960b 90bd 496f d8bc 9fa9 063d 3260 17bd

fc2.bias f4 [64]
-0.094735965 0.010523618 0.014597441 0.5362629 0.32018566 0.028095935 0.1333321 0.011368071
0.0053801555 0.044103112 0.22799815 0.18677022 -0.027762286 0.33988684 0.32993042 0.30985433
0.18361327 0.25638357 -0.17590468 -0.08623244 -0.117205046 0.18486828 0.09854038 0.43427843
-0.17471251 0.25807405 0.36615065 -0.11461104 0.56613135 0.15488358 -0.16164806 -0.14952521
0.25566518 0.20757926 0.14994575 0.18204351 0.005258064 0.24509051 0.13033447 0.55284387
-0.110586904 -0.025259312 0.51118004 -0.05623817 0.28839976 -0.19202204 -0.12807451 0.02095982
0.1691378 0.42781004 0.18666607 -0.03030146 0.17086203 0.5185227 -0.018982626 0.15605956
-0.02285841 -0.1475425 0.057994876 0.35396126 0.49075672 -0.012818935 0.12642153 0.3380527
00000000: ee04 c2bd 416b 2c3c 1b2a 6f3c 8748 093f
00000010: 60ef a33e 7229 e63c 3688 083e 2541 3a3c
00000020: 044c b03b 77a5 343d 5978 693e b140 3f3e
00000030: bc6d e3bc a605 ae3e a4ec a83e 3aa5 9e3e
00000040: 1e05 3c3e b544 833e 5b20 34be a29a b0bd
00000050: 3309 f0bd 1c4e 3d3e 8acf c93d be59 de3e
00000060: d6e7 32be 4822 843e 1978 bb3e 31b9 eabd
00000070: fced 103f cd99 1e3e 1287 25be 231d 19be
00000080: 8ce6 823e a88f 543e 618b 193e 9d69 3a3e
00000090: d64b ac3b 02f9 7a3e 6676 053e 2d87 0d3f
000000a0: 637b e2bd 9eec cebc b2dc 023f ff59 66bd
000000b0: 22a9 933e 6da1 44be f725 03be eeb3 ab3c
000000c0: 7632 2d3e eb09 db3e 6425 3f3e c43a f8bc
000000d0: 75f6 2e3e e7bd 043f 7481 9bbc 14ce 1f3e
000000e0: 8f41 bbbc 6215 17be 098c 6d3d 693a b53e
000000f0: 7744 fb3e 8306 52bc a574 013e 3e15 ad3e

fc3.weight f4 [24, 64]
-0.16399683 0.027770558 -0.19641347 0.017222779 -0.25426582 -0.31762952 -0.0072179246 -0.021483192
-0.05089098 -0.020264925 -0.021545505 -0.13506787 -0.063828275 0.08178991 0.024423745 -0.09925876
-0.034454215 -0.00640832 -0.005669233 -0.019958992 -0.043493807 -0.059398197 -0.19720793 -0.12230495
-0.07710177 0.04982347 0.042704314 -0.1640783 0.051485088 -0.028777197 -0.16670868 0.025278326
-0.12564518 0.11686055 0.025880506 0.050568167 0.026508017 0.05210084 -0.2675772 -0.04921349
-0.31964213 -0.20597136 -0.05251099 0.07729371 0.012090577 -0.17133291 -0.3907654 -0.13461879
-0.08948346 -0.09560349 -0.12802488 0.07784447 0.035979856 -0.19899437 0.10844141 -0.06368573
-0.017485356 -0.15999812 0.07186805 0.037527006 0.031964045 -0.07946635 -0.11317321 -0.090099685
-0.03535724 -0.09397018 -0.13123728 -0.009320116 0.053681396 -0.074319236 -0.00851535 0.024428423
0.027238026 -0.027017962 0.036527682 -0.017740369 -0.1791784 -0.016489398 -0.03949494 0.06894088
-0.028003551 0.0029612873 0.048625883 0.036487795 -0.018568821 0.033212595 0.0672113 0.026070112
-0.10041171 -0.05158317 0.05428103 0.06580122 0.0063492367 0.08174115 -0.040933177 -0.060277794
0.11198823 0.027755778 0.05256166 0.09686241 -0.09802248 0.067667976 -0.051901814 0.010061022
-0.19360314 0.019191684 0.06330699 0.025066806 -0.027786406 -0.06272967 -0.14662787 -0.021257328
-0.051141065 0.08836439 0.06372276 -0.093012 0.08610214 0.020596534 0.01099822 -0.09398994
0.09492713 0.024807401 0.06782117 0.03625665 0.07536772 0.05191446 0.042702768 0.0208568
-0.18297555 -0.023030996 -0.004164242 -0.09622844 -0.084938794 -0.18734933 -0.09601669 -0.08849869
-0.05499989 -0.18473212 -0.07133577 -0.15765649 -0.16874968 -0.048377875 -0.07460827 -0.10972512
-0.07142724 -0.24016963 -0.21116413 -0.03753348 -0.12826385 -0.34243467 -0.04412678 -0.04959016
-0.08224156 -0.19280882 0.047650974 -0.19988395 -0.23026499 -0.1393765 -0.1636243 -0.10561
0.09195933 0.0020361864 -0.087175265 -0.11890647 -0.039964166 0.09382635 -0.1297437 -0.118537344
-0.12440552 -0.05118483 -0.099474855 -0.0039248276 -0.20298599 -0.06099759 -0.3292019 0.030284554
-0.16437389 -0.0766276 -0.22120148 -0.07021369 -0.0589802 -0.15804516 -0.11729285 -0.078867346
0.037568524 -0.023121484 -0.04621857 -0.18995894 -0.057079513 -0.29418647 0.035441305 -0.04014372
-0.40848505 -0.12748693 -0.7801707 -1.1616138 -0.73423356 -0.15370464 -0.21369086 -0.28378916
-0.18963325 -0.061289683 -0.22509561 -0.2696591 -0.7949708 -0.34355035 -0.26458636 -0.7105498
-0.27289894 -0.19164264 0.0005695425 -0.4848037 -0.18202281 -0.5924586 -0.274155 -0.43557394
-0.2988839 -0.72917193 -0.28345302 -0.23739491 -0.5431648 -0.20550078 -0.08498494 -0.017272515
-0.15035032 -0.29060018 -0.15789133 -0.21166016 0.050502073 -0.41188616 -0.2864865 -0.94468737
-0.11675574 -0.261548 -0.21799046 -0.06734546 -0.8691475 -0.16493213 -0.10031929 -0.08687764
-0.85682064 -0.33212337 -0.17399402 -0.27710572 -0.5403601 -1.2360909 -0.297798 -0.07780482
-0.76642466 0.056743838 -0.12767904 -0.5704276 -0.20493975 -0.34843805 -0.37053785 -0.33317882
00000000: c9ee 27be 157f e33c 9d20 49be c916 8d3c
00000010: 212f 82be 56a0 a2be 5784 ecbb 85fd afbc
00000020: 0f73 50bd a102 a6bc 3380 b0bc 3b4f 0abe
00000030: 66b8 82bd 7881 a73d 4e14 c83c 2d48 cbbd
00000040: dd1f 0dbd e2fc d1bb f9c4 b9bb 0a81 a3bc
00000050: 9026 32bd 864b 73bd e0f0 49be 057b fabd
00000060: 88e7 9dbd b213 4c3d b8ea 2e3d 2404 28be
00000070: 07e2 523d 28be ebbc aeb5 2abe 7e14 cf3c
00000080: 21a9 00be 9654 ef3d 5b03 d43c 9120 4f3d
00000090: 5727 d93c b167 553d e1ff 88be 1694 49bd
000000a0: 22a8 a3be 28ea 52be c415 57bd 2a4c 9e3d
000000b0: 8e17 463c e571 2fbe 6712 c8be 82d9 09be
000000c0: 1b43 b7bd c3cb c3bd f418 03be ec6c 9f3d
000000d0: 9d5f 133d 2ec5 4bbe 8816 de3d aa6d 82bd
000000e0: 733d 8fbc 8cd6 23be 8e2f 933d ebb5 193d
000000f0: bbec 023d 41bf a2bd 5bc7 e7bd 2f86 b8bd
00000100: c1d2 10bd 7073 c0bd 1163 06be 66b3 18bc
00000110: 06e1 5b3d af34 98bd f783 0bbc 1e1e c83c
00000120: 4822 df3c c654 ddbc 0d9e 153d 4054 91bc
00000130: 8b7a 37be c614 87bc 72c5 21bd e030 8d3d
00000140: b467 e5bc 2812 423b ef2b 473d 3a74 153d
00000150: a41d 98bc ee09 083d 14a6 893d fd90 d53c
00000160: a8a4 cdbd e048 53bd c955 5e3d cac2 863d
00000170: 420d d03b e767 a73d 8ca9 27bd d9e5 76bd
00000180: 165a e53d 1660 e33c e54a 573d cd5f c63d
00000190: 03c0 c8bd 8295 8a3d ff96 54bd fcd6 243c
000001a0: e73f 46be e137 9d3c 18a7 813d e758 cd3c
000001b0: 51a0 e3bc 6a78 80bd 9e25 16be d923 aebc
000001c0: 4b79 51bd 64f8 b43d 1481 823d 137d bebd
000001d0: 5256 b03d 10ba a83c e131 343c cc7d c0bd
000001e0: 2869 c23d e438 cb3c d3e5 8a3d da81 143d
000001f0: 645a 9a3d 42a4 543d 19e9 2e3d e1db aa3c
00000200: f15d 3bbe 80ab bcbc 3274 88bb 6b13 c5bd
00000210: 64f4 adbd 81d8 3fbe 66a4 c4bd cd3e b5bd
00000220: 9147 61bd 6b2a 3dbe 7d18 92bd b470 21be
00000230: b7cc 2cbe e127 46bd 38cc 98bd 90b7 e0bd
00000240: 7248 92bd 07ef 75be 693b 58be b5bc 19bd
00000250: 9957 03be 9953 afbe 48be 34bd 0d1f 4bbd
00000260: 436e a8bd ad6f 45be ab2d 433d 61ae 4cbe
00000270: 96ca 6bbe b7b8 0ebe 218d 27be 0e4a d8bd
00000280: 2c55 bc3d 8a71 053b f288 b2bd 3c85 f3bd
00000290: 77b1 23bd 0828 c03d 88db 04be b5c3 f2bd
000002a0: 52c8 febd 2fa7 51bd 79b9 cbbd d79b 80bb
000002b0: 8fdb 4fbe 9cd8 79bd 278d a8be 5017 f83c
000002c0: a151 28be eeee 9cbd a482 62be 32cc 8fbd
000002d0: 3995 71bd 97d6 21be 3c37 f0bd 3485 a1bd
000002e0: 74e1 193d 4469 bdbc af4f 3dbd 9984 42be
000002f0: 35cc 69bd 9c9f 96be e72a 113d be6d 24bd
00000300: f424 d1be ef8b 02be 44b9 47bf c3af 94bf
00000310: bbf6 3bbf c064 1dbe c7d1 5abe d04c 91be
00000320: 382f 42be e40a 7bbd 777f 66be c210 8abe
00000330: 3583 4bbf d5e5 afbe dd77 87be 97e6 35bf
00000340: 69b9 8bbe f83d 44be 5a4d 153a 3138 f8be
00000350: 3064 3abe 5eab 17bf 0b5e 8cbe 8c03 dfbe
00000360: 4f07 99be 03ab 3abf c120 91be a717 73be
00000370: d90c 0bbf cc6e 52be 960c aebd 177f 8dbc
00000380: 6ff5 19be 8cc9 94be 44ae 21be 71bd 58be
00000390: 43db 4e3d bee2 d2be 5cae 92be 08d7 71bf
000003a0: a21d efbd 9fe9 85be e438 5fbe 6bec 89bd
000003b0: 7380 5ebf f8e3 28be 3374 cdbd e7ec b1bd
000003c0: 9958 5bbf 130c aabe 7d2b 32be cde0 8dbe
000003d0: 0a55 0abf 3a38 9ebf fb78 98be 2258 9fbd
000003e0: 6834 44bf 3a6c 683d 4bbe 02be 8b07 12bf
000003f0: badb 51be 7966 b2be 23b7 bdbe 6a96 aabe

fc3.bias f4 [24]
-0.2525598 0.16452739 -0.23699181 -0.2849088 -0.04511231 -0.027576232 0.22656624 0.2755829
0.12677285 0.06551287 -0.26243016 -0.36418876 -0.19231342 0.18646847 -0.12544417 -0.21783198
-0.29617414 -0.23979643 0.11175773 -0.14307304 -0.29600134 -0.2620839 -0.1430622 -0.18943028
00000000: 854f 81be de79 283e fbad 72be 91df 91be
00000010: b0c7 38bd 8de7 e1bc fb00 683e 3419 8d3e
00000020: bed0 013e 9d2b 863d 3f5d 86be f376 babe
00000030: cfed 44be 97f1 3e3e 7074 00be 590f 5fbe
00000040: 23a4 97be 328d 75be 3de1 e43d bd81 12be
00000050: 7d8d 97be dc2f 86be e67e 12be 03fa 41be

exp_avg f4 [64, 768]
-0.0001080427 -8.986534e-05 -6.875978e-05 -2.8809036e-05 3.567972e-05 6.222951e-05 0.00010045663 0.000110359186
0.00011359822 0.00014936399 0.00014015894 0.00013031471 0.00012219445 0.00011823303 -2.9937635e-06 -6.6906454e-05
-0.00012498941 -9.622827e-05 -2.5244417e-05 -1.3291402e-06 4.8632628e-05 0.00012201036 0.00011910329 9.9079014e-05
0.00010763418 0.00013705513 0.00014077127 9.936223e-05 9.238824e-05 6.793269e-05 -7.254352e-05 -0.00010012387
-0.00013858335 -0.00010482016 -2.8975184e-05 0.00010829855 6.2838226e-05 5.2008927e-05 0.00010841691 0.000116537994
7.924296e-05 0.00012379007 7.519093e-05 2.2611404e-05 2.4789799e-05 -5.0091163e-05 -0.000104732346 3.162427e-05
-0.00020372434 -2.0131334e-05 1.6774557e-05 5.5144217e-05 0.000108290005 0.00012947922 9.168188e-05 0.00014129165
9.945912e-05 3.9263083e-05 5.9664853e-06 -3.1521235e-05 -8.667977e-05 -1.7023776e-06 6.111044e-05 -2.4387225e-05
-0.00020461177 -2.802996e-06 2.587335e-05 8.077941e-05 0.00014788227 0.00021539666 0.000117855176 0.00016188253
3.9778784e-05 -2.606501e-05 -9.458985e-05 -6.382968e-05 -8.504791e-06 6.336109e-06 -3.479748e-05 -8.471879e-05
-0.0003625791 -0.00011503558 -7.8574685e-06 -3.9215183e-06 -2.1021371e-05 0.000103955404 0.00014675208 0.00013058897
0.00010525025 2.2567687e-05 -2.9891791e-05 -1.700642e-05 -0.00010347037 -0.00015235368 -0.00017258496 -0.00025766733
-0.0003627748 -0.0002444496 -0.00019737077 -0.00017102083 -0.000186008 -8.259975e-05 -7.475545e-05 -7.2293275e-05
-0.00016610311 -0.00017018238 -0.00017026669 -0.00028703487 -0.00034288169 -0.00030965297 -0.00033301595 -0.00035797304
-0.0003736202 -0.00027162765 -0.0002081812 -0.00018844263 -0.00018711275 -0.00025607922 -0.00020397612 -0.00020744531
-0.00027007572 -0.00027842078 -0.00020226058 -0.00019085595 -0.00027735587 -0.00019766807 -0.00015526393 -0.0002234621
-0.00010416682 -4.3945307e-05 7.2977855e-05 0.00014515074 -7.731758e-06 -2.0309897e-05 -2.4533505e-05 2.5886759e-05
2.3974274e-06 -0.00012489599 -0.000120114644 -0.00020763646 -0.00031096244 -0.00027613365 -0.00017749355 -0.00022647087
-4.2425665e-05 -2.4358675e-05 3.6086556e-05 0.00012415514 5.214098e-05 0.0001481211 0.0001963989 5.050579e-05
-2.866744e-05 -1.2424829e-05 -9.338362e-05 -0.000115788076 -0.00026665014 -0.00026495653 -0.00012401391 -0.00015635602
-3.0332816e-05 4.3651858e-06 -1.7869184e-05 -7.204172e-05 -2.5095998e-05 1.7590407e-06 2.9752443e-06 0.00012693698
-0.00012596493 -0.00018767621 -2.3689388e-05 0.00032886947 0.00012657011 -0.00017197213 -0.0001787686 -0.0001204978
-8.299772e-06 1.7530203e-05 -0.00017435238 -6.661558e-05 -0.000102808524 -0.0001353526 -8.1021164e-05 -0.00020274014
9.7852026e-05 0.00013196748 0.00021497841 0.00018246344 0.00019745102 8.4368425e-05 -5.445296e-05 -0.0001757659
-7.006009e-05 -0.0001854272 -2.3406028e-05 -4.226928e-05 -0.00013660158 -0.000105462335 -0.00016168821 -0.00012960429
0.00032765124 0.0005295043 0.0004580648 0.0003466996 0.000113849186 0.00012954506 6.090019e-05 -0.00031208817
-0.0001762987 -8.316611e-05 -9.900178e-05 -8.471765e-05 -0.00015386836 -0.00013056664 -0.00018424814 -0.0001559166
7.659941e-06 0.00048461126 0.00054138026 0.00041876754 0.00047897908 0.00022822064 0.00015670678 0.0001341282
-6.3332285e-05 -0.00013382258 -7.054399e-05 4.4847024e-05 -0.00017439146 -0.000197227 -8.757828e-06 -7.902311e-06
3.7985155e-05 0.00044707922 0.00049835304 0.00046086338 0.00040718247 0.00042853635 0.00025350493 0.000155469
-7.080526e-05 -2.8184724e-05 5.165387e-05 9.912502e-06 -0.00018211512 -0.00011936236 4.996607e-06 9.442252e-05
-0.00017084622 -0.00012766277 0.0004758886 0.0004994247 0.00035798032 0.0002784341 0.00041995198 0.00036109483
00000000: fc94 e2b8 1676 bcb8 2033 90b8 efaa f1b7
00000010: cfa6 1538 3781 8238 3eac d238 a370 e738
00000020: 943b ee38 979e 1c39 a1f7 1239 17a5 0839
00000030: 5321 0039 e0f3 f738 77e8 48b6 2150 8cb8
00000040: 970f 03b9 29ce c9b8 f9c3 d3b7 e964 b2b5
00000050: e3fa 4b38 d0df ff38 18c7 f938 a4c8 cf38
00000060: a9b9 e138 75b6 0f39 009c 1339 b160 d038
00000070: 8fc0 c138 1677 8e38 8122 98b8 98f9 d1b8
00000080: af50 11b9 e5d2 dbb8 bc0f f3b7 571e e338
00000090: 04c8 8338 2924 5a38 e35d e338 dc65 f438
000000a0: 3d2f a638 a5cd 0139 d3af 9d38 9fad bd37
000000b0: b0f3 cf37 fa18 52b8 c0a3 dbb8 4da4 0438
000000c0: d69e 55b9 b6df a8b7 16b7 8c37 a74a 6738
000000d0: c119 e338 d0c4 0739 5645 c038 b027 1439
000000e0: b594 d038 6aae 2438 b833 c836 ab35 04b8
000000f0: d9c7 b5b8 407d e4b5 6b28 8038 2b93 ccb7
00000100: 0e8d 56b9 1b1b 3cb6 990a d937 1e68 a938
00000110: d810 1b39 1adc 6139 0429 f738 03bf 2939
00000120: 25d8 2638 2fa6 dab7 8a5e c6b8 4cdc 85b8
00000130: cdaf 0eb7 c39a d436 82f3 11b8 0eab b1b8
00000140: 8b18 beb9 423f f1b8 92d3 03b7 9695 83b6
00000150: 0d57 b0b7 a202 da38 76e1 1939 b6ee 0839
00000160: ccb9 dc38 bd4f bd37 22c0 fab7 02a9 8eb7
00000170: 3bfe d8b8 21c1 1fb9 ecf7 34b9 8617 87b9
00000180: cf32 beb9 7829 80b9 50f5 4eb9 0e54 33b9
00000190: 240b 43b9 6739 adb8 07c6 9cb8 289c 97b8
000001a0: f72b 2eb9 fc72 32b9 9e89 32b9 2b7d 96b9
000001b0: cdc4 b3b9 eb58 a2b9 a598 aeb9 54ae bbb9
000001c0: 74e2 c3b9 3f69 8eb9 374b 5ab9 af98 45b9
000001d0: b233 44b9 5f42 86b9 6ce2 55b9 ad85 59b9
000001e0: f398 8db9 01f9 91b9 e915 54b9 8120 48b9
000001f0: 136a 91b9 1e45 4fb9 58ce 22b9 2751 6ab9
00000200: 2374 dab8 ea51 38b8 b00b 9938 9b33 1839
00000210: a6b7 01b7 2c5f aab7 4dcd cdb7 6427 d937
00000220: 7de3 2036 83f6 02b9 0fe6 fbb8 fdb8 59b9
00000230: ac08 a3b9 08c6 90b9 901d 3ab9 d078 6db9
00000240: 36f2 31b8 db55 ccb7 a55b 1738 a42f 0239
00000250: f3b1 5a38 f450 1b39 6ef0 4d39 2ed6 5338
00000260: dc7a f0b7 3c74 50b7 f3d6 c3b8 40d3 f2b8
00000270: 2dcd 8bb9 dde9 8ab9 bb09 02b9 80f3 23b9
00000280: 3a73 feb7 a978 9236 c8e5 95b7 1b15 97b8
00000290: 3f85 d2b7 2e18 ec35 4faa 4736 631a 0539
000002a0: 7415 04b9 f3ca 44b9 93b8 c6b7 1d6c ac39
000002b0: e8b7 0439 6b53 34b9 d573 3bb9 c4b3 fcb8
000002c0: 403f 0bb7 d30d 9337 5cd2 36b9 f8b3 8bb8
000002d0: e89a d7b8 70ed 0db9 e8e9 a9b8 a496 54b9
000002e0: e835 cd38 c060 0a39 d46b 6139 a853 3f39
000002f0: db0a 4f39 f4ee b038 6c64 64b8 cd4d 38b9
00000300: 39ed 92b8 3c6f 42b9 1058 c4b7 4b4a 31b8
00000310: b53c 0fb9 a92b ddb8 d98a 29b9 63e6 07b9
00000320: 9bc8 ab39 6fce 0a3a 6b28 f039 3cc5 b539
00000330: 51c2 ee38 7dd6 0739 156f 7f38 c49f a3b9
00000340: d2dc 38b9 7769 aeb8 2d9f cfb8 71aa b1b8
00000350: b957 21b9 b7e8 08b9 bc32 41b9 8b7d 23b9
00000360: 3283 0037 6c13 fe39 6aeb 0d3a 078e db39
00000370: 7c1f fb39 834e 6f39 a851 2439 c4a4 0c39
00000380: 43d1 84b8 ba52 0cb9 04f1 93b8 201a 3c38
00000390: dadc 36b9 b8ce 4eb9 96ee 12b7 2b94 04b7
000003a0: 4052 1f38 f565 ea39 e8a3 023a 09a0 f139
000003b0: 1b7b d539 2dad e039 dbe8 8439 6405 2339
000003c0: 497d 94b8 3c6e ecb7 eca6 5838 df4d 2637
000003d0: 28f6 3eb9 2e52 fab8 87a8 a736 b404 c638
000003e0: 2f25 33b9 37dd 05b9 b080 f939 d3eb 023a
000003f0: 4eaf bb39 cbfa 9139 002d dc39 5451 bd39
