src/lightning_logs/version_46/checkpoints/epoch=5-step=9599.ckpt (torch, 707991 bytes, 24 tensors)

cnv.weight f4 [128, 3, 5, 5]
0.0593214 -0.017074894 -0.10187656 0.056950524 -0.03745062 -0.11018432 -0.000363908 0.0010069173
-0.022624075 0.049530707 -0.0155695155 -0.0015209888 0.009168563 0.11162221 -0.08662979 0.11498095
0.11429765 -0.091297925 -0.11482886 -0.112923354 0.09932151 -0.051300034 -0.09581833 0.016677758
0.07524374 0.08865093 0.045710023 0.031931557 0.019452555 0.104619004 -0.07197348 -0.08188843
-0.10100664 -0.03933261 -0.05207984 0.048843924 -0.07965207 0.10238456 -0.0012115355 -0.06315592
0.020294992 0.08052874 -0.031949934 0.033052064 -0.05124672 -0.014461714 -0.09462883 -0.07587705
0.0730336 0.04237518 0.09646444 0.11369748 -0.0859962 0.09493731 -0.09001425 -0.01757732
0.11186768 -0.09516461 -0.09789744 0.0067028757 -0.09044409 -0.07128977 -0.050792225 0.030074753
-0.02213474 -0.037060983 0.041731153 -0.09083132 -0.085302934 -0.0076684426 0.07971254 -0.014898122
0.08333553 0.026193008 0.059393488 -0.063885525 0.07106058 0.011584188 -0.087293945 -0.0018597892
0.07889532 0.073078185 -0.103470325 0.013288652 -0.11104967 -0.021021927 -0.028767785 0.10089779
-0.070635475 0.086321205 0.05639849 0.010787147 -0.014173734 -0.1003348 0.0021886514 0.026836857
0.044276845 0.047667973 0.04419106 0.05548899 -0.071742475 -0.1101701 -0.038126197 -0.052462097
-0.04070046 0.095583536 0.09621387 0.032641616 -0.05425872 -0.051239964 0.10356708 -0.003283266
0.018983811 0.0006031317 0.09801147 -0.10666461 0.095120855 0.069160044 0.05640471 0.056127317
-0.012744599 -0.041030206 -0.10773434 -0.04153825 0.035402868 0.09690851 -0.0062801354 0.033659626
-0.064409144 0.03191318 -0.10206967 0.05352447 0.04260097 0.024812356 0.07966 -0.09804409
0.05052221 -0.04246161 0.026991136 0.094388574 0.09530749 -0.10668307 -0.10054843 -0.10521583
0.037510812 0.087375626 0.111735635 -0.06330868 0.103345074 -0.026331374 0.0679044 -0.031807657
-0.0702454 0.112428516 0.0035753066 0.10301558 0.09095574 0.007207642 -0.10890675 -0.0043850113
-0.07719694 0.06344983 -0.10219088 -0.048714507 -0.059283614 0.076867595 -0.098013826 -0.07691094
0.047445625 0.07620159 0.058001243 0.01819211 0.08047642 -0.030780353 0.082694516 0.042522345
0.056280687 -0.098895475 -0.007916889 0.0251919 0.0524235 -0.068197384 0.088641286 0.010068099
0.05113886 0.039040614 0.05931233 -0.10155806 0.098914444 0.098395325 0.01255577 0.02236832
0.019633606 0.028622674 0.018725716 0.03722841 -0.03684022 -0.05356767 -0.020159654 0.037139017
0.036777314 0.04084358 0.022225657 0.10917758 -0.079587206 0.077284954 0.025374535 -0.08941804
0.0037262684 -0.0968876 -0.06198716 0.04642537 -0.059518296 -0.07453747 0.00094926904 -0.085126325
-0.028038813 -0.10188121 0.08415703 -0.056868583 -0.062230997 -0.056347366 0.07330855 0.058184057
-0.06577141 0.007167035 0.09036981 -0.023192504 -0.009482752 0.0449862 -0.101511754 -0.09060127
-0.04321876 -0.03325931 0.009017423 -0.057326037 -0.10311751 0.09428791 -0.10225349 -0.065645695
-0.032471616 -0.009344247 0.07964041 -0.09393529 0.11163347 0.058085047 0.039159957 0.0034490805
0.013006632 -0.035247598 -0.007883481 -0.008485002 0.013267866 -0.07593183 -0.015691997 -0.023585279
00000000: fffa 723d a6e0 8bbc a8a4 d0bd f444 693d
00000010: d265 19bd 51a8 e1bd e8ca beb9 8afa 833a
00000020: 2056 b9bc b6e0 4a3d 4817 7fbc ea5b c7ba
00000030: be37 163c 2f9a e43d f66a b1bd 227b eb3d
00000040: e314 ea3d 68fa babd 652b ebbd 5c44 e7bd
00000050: 1369 cb3d fc1f 52bd 673c c4bd cb9f 883c
00000060: 6419 9a3d 9e8e b53d 6f3a 3b3d aaca 023d
00000070: f75a 9f3c 7d42 d63d d566 93bd 1fb5 a7bd
00000080: 92dc cebd 3b1b 21bd ac51 55bd 9110 483d
00000090: a020 a3bd ffae d13d 63cc 9eba e457 81bd
000000a0: af41 a63c 41ec a43d efdd 02bd 9a61 073d
000000b0: 15e8 51bd d3f0 6cbc c3cc c1bd 6d65 9bbd
000000c0: a492 953d 9991 2d3d 268f c53d 39da e83d
000000d0: c71e b0bd 7e6e c23d 6459 b8bd 50fe 8fbc
000000e0: e21a e53d aae5 c2bd 747e c8bd cca3 db3b
000000f0: c03a b9bd 5f00 92bd 820b 50bd 545f f63c
00000100: ea53 b5bc 42cd 17bd 49ee 2a3d c505 babd
00000110: 4eb3 aebd 8f47 fbbb 5440 a33d 4117 74bc
00000120: d1ab aa3d b892 d63c 9646 733d 6ad6 82bd
00000130: 3688 913d 9bcb 3d3c 2bc7 b2bd 2cc4 f3ba
00000140: df93 a13d 04aa 953d 40e8 d3bd a5b8 593c
00000150: 026e e3bd 2d36 acbc 6baa ebbc 80a3 ce3d
00000160: 55a9 90bd 2cc9 b03d 1a02 673d 93bc 303c
00000170: f338 68bc 557c cdbd 7a6f 0f3b f8d8 db3c
00000180: a35b 353d 7e3f 433d af01 353d 6c48 633d
00000190: b8ed 92bd dda0 e1bd 372a 1cbd 7fe2 56bd
000001a0: 87b5 26bd 4dc1 c33d c70b c53d 37b3 053d
000001b0: 643e 5ebd ffe0 51bd fa1a d43d 102c 57bb
000001c0: f083 9b3c 7c1b 1e3a 3dba c83d fa72 dabd
000001d0: b9ce c23d c8a3 8d3d a008 673d c2e5 653d
000001e0: b9ce 50bc 4a0f 28bd d2a3 dcbd 0324 2abd
000001f0: 9902 113d f877 c63d 98c9 cdbb adde 093d
00000200: f1e8 83bd 65b7 023d e709 d1bd 7a3c 5b3d
00000210: 5b7e 2e3d 4843 cb3c c824 a33d 57cb c8bd
00000220: 60f0 4e3d 3aec 2dbd 841c dd3c cc4e c13d
00000230: 9330 c33d a77c dabd 56ec cdbd 667b d7bd
00000240: f0a4 193d fef1 b23d a7d5 e43d fba7 81bd
00000250: 95a6 d33d e5b4 d7bc 7611 8b3d bf48 02bd
00000260: d2dc 8fbd ec40 e63d b14f 6a3b d5f9 d23d
00000270: 0147 ba3d 152e ec3b 810a dfbd 24b0 8fbb
00000280: 6e19 9ebd fcf1 813d 7449 d1bd dd88 47bd
00000290: 60d3 72bd c26c 9d3d 79bb c8bd 7c83 9dbd
000002a0: 5856 423d 940f 9c3d b692 6d3d 9f07 953c
000002b0: d2d0 a43d 1427 fcbc be5b a93d e92b 2e3d
000002c0: 9486 663d b689 cabd d7b5 01bc 3e5f ce3c
000002d0: 06ba 563d 12ab 8bbd 9089 b53d abf4 243c
000002e0: fb76 513d 0de9 1f3d 7cf1 723d acfd cfbd
000002f0: a893 ca3d 7d83 c93d b7b6 4d3c c43d b73c
00000300: a8d6 a03c 197a ea3c ac66 993c d17c 183d
00000310: c5e5 16bd c669 5bbd dc25 a5bc 151f 183d
00000320: cfa3 163d 994b 273d 9512 b63c 7f98 df3d
00000330: 9efe a2bd 9347 9e3d 42de cf3c ce20 b7bd
00000340: 6934 743b 026d c6bd 40e6 7dbd 8728 3e3d
00000350: 75c9 73bd 1aa7 98bd 5ed8 783a b656 aebd
00000360: a7b1 e5bc 19a7 d0bd 855a ac3d 08ef 68bd
00000370: eee5 7ebd 7fcc 66bd cb22 963d 6852 6e3d
00000380: 29b3 86bd 72d9 ea3b cf13 b93d 35fe bdbc
00000390: 8b5d 1bbc 7343 383d 65e5 cfbd 298d b9bd
000003a0: 2806 31bd ea3a 08bd d0bd 133c b5ce 6abd
000003b0: 462f d3bd 051a c13d 476a d1bd 4071 86bd
000003c0: f500 05bd 9d18 19bc 831a a33d 2561 c0bd
000003d0: 17a0 e43d 96ea 6d3d 3166 203d f809 623b
000003e0: c519 553c c95f 10bd b729 01bc ae04 0bbc
000003f0: 7761 593c 2682 9bbd 818c 80bc ea35 c1bc

cnv.bias f4 [128]
0.07411229 -0.05771347 0.03568662 -0.047609046 -0.043400627 -0.061400317 -0.027448868 0.06672651
-0.074582025 -0.10928385 -0.0027491802 -0.10719995 -0.030965108 -0.06215682 -0.008143765 0.079396464
-0.012900613 0.06680106 0.026231496 -0.081896536 0.113261 -0.089983754 -0.005239191 0.036820024
-0.005222246 0.029507343 0.053431366 -0.084333226 0.07585059 0.027297907 0.11005339 -0.051669102
0.10893675 -0.11180125 0.09162471 0.032843936 -0.068236805 -0.0763511 -0.02099843 0.07700183
0.054516785 0.017508605 0.048202045 -0.02662175 -0.063543744 0.107356444 -0.00435192 -0.07218644
0.09133614 -0.032672863 -0.011211415 -0.09591345 -0.112593986 -0.048666548 0.034996316 0.012536637
0.019062603 -0.03306701 -0.051695656 -0.019909486 0.053677995 0.026430719 0.054198895 0.04070217
-0.066087075 -0.005238172 -0.091963895 0.100724556 0.03485694 -0.06633241 0.05129201 0.057767414
-0.018757554 0.060522255 0.10894851 0.02591527 -0.04071792 0.061458953 0.022319205 0.08601587
0.040487476 -0.031903062 0.028604325 0.017851053 -0.02107005 -0.07128919 0.07495472 0.014561028
0.114228815 -0.07020913 -0.0716138 0.080801494 -0.094597295 0.008904163 0.03835898 -0.012350614
0.025636774 0.008050824 0.052692857 -0.011555199 -0.10740187 -0.039512027 -0.07781789 -0.04951617
0.058938097 -0.05045422 -0.0037801724 -0.100679435 -0.036916133 0.0688362 0.021556454 0.01646042
0.05126573 -0.070414335 0.040190082 0.0874446 0.05258382 -0.00072876585 0.0246763 0.061852086
0.033758268 -0.05473737 0.012849696 0.06452907 -0.09724336 -0.053500287 0.016171657 -0.07372358
00000000: 2fc8 973d f664 6cbd 222c 123d b401 43bd
00000010: dbc4 31bd e67e 7bbd 73dc e0bc e9a7 883d
00000020: 76be 98bd 36d0 dfbd 972b 34bb a68b dbbd
00000030: 8aaa fdbc 2698 7ebd 6d6d 05bc 9d9a a23d
00000040: 185d 53bc ffce 883d 6fe3 d63c 5fb9 a7bd
00000050: 62f5 e73d 6749 b8bd 85ad abbb 98d0 163d
00000060: 601f abbb 62b9 f13c d9da 5a3d e6b6 acbd
00000070: 8e57 9b3d dc9f df3c ac63 e13d fba2 53bd
00000080: 3b1a df3d 0ef8 e4bd bca5 bb3d 5d87 063d
00000090: bdbf 8bbd f75d 9cbd e604 acbc 23b3 9d3d
000000a0: fe4c 5f3d 356e 8f3c 826f 453d db15 dabc
000000b0: 3923 82bd b2dd db3d 8d9a 8ebb 7cd6 93bd
000000c0: 710e bb3d fbd3 05bd 15b0 37bc 456e c4bd
000000d0: ad97 e6bd 9356 47bd 4c58 0f3d 7766 4d3c
000000e0: 2d29 9c3c 4671 07bd d3be 53bd 3819 a3bc
000000f0: 75dd 5b3d 3c85 d83c a9ff 5d3d 52b7 263d
00000100: a958 87bd f9a4 abbb 9157 bcbd ad48 ce3d
00000110: 27c6 0e3d 49d9 87bd 9217 523d 869d 6c3d
00000120: 71a9 99bc 2fe6 773d 6520 df3d 434c d43c
00000130: d5c7 26bd 62bc 7b3d c4d6 b63c 1729 b03d
00000140: 32d6 253d c9ac 02bd 9e53 ea3c 5f3c 923c
00000150: 199b acbc 1100 92bd dc81 993d 6191 6e3c
00000160: ccf0 e93d cec9 8fbd 42aa 92bd 417b a53d
00000170: 3abc c1bd c4e2 113c 4e1e 1d3d 3b5a 4abc
00000180: 3604 d23c 9ae7 033c 77d4 573d 0452 3dbc
00000190: 83f5 dbbd 5dd7 21bd fc5e 9fbd 78d1 4abd
000001a0: 1369 713d 16a9 4ebd c5bc 77bb 0531 cebd
000001b0: 5f35 17bd fef9 8c3d 2997 b03c 01d8 863c
000001c0: 04fc 513d 6435 90bd 5b9e 243d 2816 b33d
000001d0: 2262 573d a60a 3fba f425 ca3c 9d58 7d3d
000001e0: 1c46 0a3d 4b34 60bd 8887 523c d127 843d
000001f0: 8727 c7bd 1e23 5bbd 6c7a 843c 63fc 96bd

bn.weight f4 [128]
1.0 1.0 1.0 1.0 1.0 1.0 1.0 1.0
1.0 1.0 1.0 1.0 1.0 1.0 1.0 1.0
1.0 1.0 1.0 1.0 1.0 1.0 1.0 1.0
1.0 1.0 1.0 1.0 1.0 1.0 1.0 1.0
1.0 1.0 1.0 1.0 1.0 1.0 1.0 1.0
1.0 1.0 1.0 1.0 1.0 1.0 1.0 1.0
1.0 1.0 1.0 1.0 1.0 1.0 1.0 1.0
1.0 1.0 1.0 1.0 1.0 1.0 1.0 1.0
1.0 1.0 1.0 1.0 1.0 1.0 1.0 1.0
1.0 1.0 1.0 1.0 1.0 1.0 1.0 1.0
1.0 1.0 1.0 1.0 1.0 1.0 1.0 1.0
1.0 1.0 1.0 1.0 1.0 1.0 1.0 1.0
1.0 1.0 1.0 1.0 1.0 1.0 1.0 1.0
1.0 1.0 1.0 1.0 1.0 1.0 1.0 1.0
1.0 1.0 1.0 1.0 1.0 1.0 1.0 1.0
1.0 1.0 1.0 1.0 1.0 1.0 1.0 1.0
00000000: 0000 803f 0000 803f 0000 803f 0000 803f
00000010: 0000 803f 0000 803f 0000 803f 0000 803f
00000020: 0000 803f 0000 803f 0000 803f 0000 803f
00000030: 0000 803f 0000 803f 0000 803f 0000 803f
00000040: 0000 803f 0000 803f 0000 803f 0000 803f
00000050: 0000 803f 0000 803f 0000 803f 0000 803f
00000060: 0000 803f 0000 803f 0000 803f 0000 803f
00000070: 0000 803f 0000 803f 0000 803f 0000 803f
00000080: 0000 803f 0000 803f 0000 803f 0000 803f
00000090: 0000 803f 0000 803f 0000 803f 0000 803f
000000a0: 0000 803f 0000 803f 0000 803f 0000 803f
000000b0: 0000 803f 0000 803f 0000 803f 0000 803f
000000c0: 0000 803f 0000 803f 0000 803f 0000 803f
000000d0: 0000 803f 0000 803f 0000 803f 0000 803f
000000e0: 0000 803f 0000 803f 0000 803f 0000 803f
000000f0: 0000 803f 0000 803f 0000 803f 0000 803f
00000100: 0000 803f 0000 803f 0000 803f 0000 803f
00000110: 0000 803f 0000 803f 0000 803f 0000 803f
00000120: 0000 803f 0000 803f 0000 803f 0000 803f
00000130: 0000 803f 0000 803f 0000 803f 0000 803f
00000140: 0000 803f 0000 803f 0000 803f 0000 803f
00000150: 0000 803f 0000 803f 0000 803f 0000 803f
00000160: 0000 803f 0000 803f 0000 803f 0000 803f
00000170: 0000 803f 0000 803f 0000 803f 0000 803f
00000180: 0000 803f 0000 803f 0000 803f 0000 803f
00000190: 0000 803f 0000 803f 0000 803f 0000 803f
000001a0: 0000 803f 0000 803f 0000 803f 0000 803f
000001b0: 0000 803f 0000 803f 0000 803f 0000 803f
000001c0: 0000 803f 0000 803f 0000 803f 0000 803f
000001d0: 0000 803f 0000 803f 0000 803f 0000 803f
000001e0: 0000 803f 0000 803f 0000 803f 0000 803f
000001f0: 0000 803f 0000 803f 0000 803f 0000 803f

bn.bias f4 [128]
0.0 0.0 0.0 0.0 0.0 0.0 0.0 0.0
0.0 0.0 0.0 0.0 0.0 0.0 0.0 0.0
0.0 0.0 0.0 0.0 0.0 0.0 0.0 0.0
0.0 0.0 0.0 0.0 0.0 0.0 0.0 0.0
0.0 0.0 0.0 0.0 0.0 0.0 0.0 0.0
0.0 0.0 0.0 0.0 0.0 0.0 0.0 0.0
0.0 0.0 0.0 0.0 0.0 0.0 0.0 0.0
0.0 0.0 0.0 0.0 0.0 0.0 0.0 0.0
0.0 0.0 0.0 0.0 0.0 0.0 0.0 0.0
0.0 0.0 0.0 0.0 0.0 0.0 0.0 0.0
0.0 0.0 0.0 0.0 0.0 0.0 0.0 0.0
0.0 0.0 0.0 0.0 0.0 0.0 0.0 0.0
0.0 0.0 0.0 0.0 0.0 0.0 0.0 0.0
0.0 0.0 0.0 0.0 0.0 0.0 0.0 0.0
0.0 0.0 0.0 0.0 0.0 0.0 0.0 0.0
0.0 0.0 0.0 0.0 0.0 0.0 0.0 0.0
00000000: 0000 0000 0000 0000 0000 0000 0000 0000
00000010: 0000 0000 0000 0000 0000 0000 0000 0000
00000020: 0000 0000 0000 0000 0000 0000 0000 0000
00000030: 0000 0000 0000 0000 0000 0000 0000 0000
00000040: 0000 0000 0000 0000 0000 0000 0000 0000
00000050: 0000 0000 0000 0000 0000 0000 0000 0000
00000060: 0000 0000 0000 0000 0000 0000 0000 0000
00000070: 0000 0000 0000 0000 0000 0000 0000 0000
00000080: 0000 0000 0000 0000 0000 0000 0000 0000
00000090: 0000 0000 0000 0000 0000 0000 0000 0000
000000a0: 0000 0000 0000 0000 0000 0000 0000 0000
000000b0: 0000 0000 0000 0000 0000 0000 0000 0000
000000c0: 0000 0000 0000 0000 0000 0000 0000 0000
000000d0: 0000 0000 0000 0000 0000 0000 0000 0000
000000e0: 0000 0000 0000 0000 0000 0000 0000 0000
000000f0: 0000 0000 0000 0000 0000 0000 0000 0000
00000100: 0000 0000 0000 0000 0000 0000 0000 0000
00000110: 0000 0000 0000 0000 0000 0000 0000 0000
00000120: 0000 0000 0000 0000 0000 0000 0000 0000
00000130: 0000 0000 0000 0000 0000 0000 0000 0000
00000140: 0000 0000 0000 0000 0000 0000 0000 0000
00000150: 0000 0000 0000 0000 0000 0000 0000 0000
00000160: 0000 0000 0000 0000 0000 0000 0000 0000
00000170: 0000 0000 0000 0000 0000 0000 0000 0000
00000180: 0000 0000 0000 0000 0000 0000 0000 0000
00000190: 0000 0000 0000 0000 0000 0000 0000 0000
000001a0: 0000 0000 0000 0000 0000 0000 0000 0000
000001b0: 0000 0000 0000 0000 0000 0000 0000 0000
000001c0: 0000 0000 0000 0000 0000 0000 0000 0000
000001d0: 0000 0000 0000 0000 0000 0000 0000 0000
000001e0: 0000 0000 0000 0000 0000 0000 0000 0000
000001f0: 0000 0000 0000 0000 0000 0000 0000 0000

bn.running_mean f4 [128]
0.11968082 0.05020985 0.09221455 0.032545526 0.073247336 0.21082819 0.08707946 0.14864327
0.024918167 0.017665775 0.04033567 0.06302835 0.038086914 0.14820446 0.10420327 0.12428841
0.05321378 0.08237004 0.08738592 0.13689555 0.15314184 0.04175239 0.05180471 0.16173981
0.097420074 0.09308407 0.11657026 0.050732367 0.18909612 0.12684211 0.17700067 0.07577869
0.22557218 0.06728394 0.10628695 0.25391454 0.117116466 0.069522895 0.17882901 0.15258977
0.118154205 0.0619816 0.10064489 0.15487045 0.028360212 0.29131287 0.033323925 0.03305029
0.16717571 0.16304018 0.091017894 0.06763236 0.06923888 0.041985735 0.098957725 0.05958472
0.10234927 0.16451086 0.12626395 0.15053032 0.07271105 0.21893762 0.099546075 0.0924958
0.10436298 0.07329646 0.15386657 0.1580346 0.19183269 0.10882965 0.06914501 0.09470269
0.099015966 0.106877595 0.15982994 0.06290277 0.0783909 0.099228546 0.12041756 0.11968638
0.07747871 0.048501648 0.1534491 0.17868385 0.18581851 0.19091529 0.2952036 0.13014883
0.17327058 0.032712203 0.14379777 0.14667943 0.05230204 0.07162744 0.109014146 0.06682298
0.097934134 0.10029244 0.0928117 0.099164054 0.10539235 0.060288414 0.06787743 0.063857116
0.14030713 0.043456014 0.10262854 0.060089685 0.10013366 0.10771191 0.15581448 0.07405002
0.12838934 0.09348424 0.24195574 0.11687728 0.07090216 0.044335745 0.163038 0.08875642
0.07771765 0.13133779 0.061732166 0.12656972 0.1381856 0.0582029 0.11313888 0.03334835
00000000: 381b f53d d8a8 4d3d fbda bc3d 754e 053d
00000010: b302 963d 58e3 573e b756 b23d f135 183e
00000020: 2f21 cc3c d1b7 903c 0437 253d 0215 813d
00000030: 0601 1c3d e9c2 173e 8668 d53d ec8a fe3d
00000040: b1f6 593d a0b1 a83d 64f7 b23d 592e 0c3e
00000050: 37d1 1c3e 8e04 2b3d 2d31 543d 1f9f 253e
00000060: 2d84 c73d dca2 be3d 63bc ee3d becc 4f3d
00000070: 6aa2 413e e6e2 013e aa3f 353e dc31 9b3d
00000080: 65fc 663e 2acc 893d f9ac d93d 1601 823e
00000090: c2da ef3d 0562 8e3d f41e 373e 7e40 1c3e
000000a0: d5fa f13d 6be0 7d3d e81e ce3d 5c96 1e3e
000000b0: ad53 e83c f626 953e ab7e 083d be5f 073d
000000c0: 1c30 2b3e 01f4 263e 9767 ba3d d682 8a3d
000000d0: 1dcd 8d3d 3cf9 2b3d 59aa ca3d 1b0f 743d
000000e0: 7e9c d13d 8975 283e 564b 013e 9f24 1a3e
000000f0: 88e9 943d 2f31 603e d0de cb3d 706e bd3d
00000100: 42bc d53d 741c 963d 338f 1d3e d2d3 213e
00000110: ca6f 443e 14e2 de3d e69b 8d3d 7cf3 c13d
00000120: e2c8 ca3d a4e2 da3d 76aa 233e 2bd3 803d
00000130: 688b a03d 5638 cb3d 7b9d f63d 221e f53d
00000140: 28ad 9e3d aaa9 463d c321 1d3e e6f8 363e
00000150: 3547 3e3e 4c7f 433e ed24 973e bc45 053e
00000160: d86d 313e 3bfd 053d b93f 133e 2233 163e
00000170: aa3a 563d 68b1 923d cf42 df3d 7dda 883d
00000180: b191 c83d 1f66 cd3d 1014 be3d 8616 cb3d
00000190: f2d7 d73d fcf0 763d 5203 8b3d 85c7 823d
000001a0: acac 0f3e effe 313d e92e d23d 9a20 763d
000001b0: e012 cd3d 1098 dc3d d58d 1f3e 89a7 973d
000001c0: 7f78 033e aa74 bf3d 3fc3 773e 5b5d ef3d
000001d0: 2735 913d 6699 353d 6ff3 263e edc5 b53d
000001e0: 6e2a 9f3d 6a7d 063e deda 7c3d 7e9b 013e
000001f0: 8780 0d3e 2a66 6e3d 5bb5 e73d 4898 083d

bn.running_var f4 [128]
0.019135231 0.008134648 0.014301543 0.005513139 0.016462978 0.10549911 0.020317657 0.03315207
0.0038401973 0.00294941 0.004199029 0.01387169 0.007965197 0.055594668 0.02592428 0.022596337
0.012594604 0.0056334455 0.017510893 0.050226353 0.022260383 0.0066733025 0.006972019 0.04590549
0.021007234 0.014689715 0.019865278 0.009395293 0.05169515 0.027670056 0.040674604 0.015987089
0.07508131 0.01673289 0.008059614 0.122133024 0.03669398 0.01465758 0.06273338 0.035544984
0.024425486 0.008189129 0.018118989 0.047061976 0.0045765713 0.13375838 0.0028946602 0.004529506
0.039828103 0.061967015 0.020748606 0.01503364 0.01735335 0.0071715843 0.01766733 0.007373688
0.018728262 0.05975978 0.036698077 0.048671313 0.0073124575 0.09221066 0.015053016 0.014398755
0.028969314 0.01120797 0.061954636 0.03067833 0.06519192 0.031530593 0.007046288 0.011343529
0.023120677 0.017884064 0.029204102 0.008327138 0.017252956 0.014374933 0.027394658 0.017077822
0.008431118 0.009155343 0.045633033 0.06299654 0.07476591 0.08688737 0.14609815 0.032480113
0.03441661 0.008186323 0.053078543 0.03195388 0.009112594 0.0112684835 0.020621091 0.011198143
0.016533136 0.021475006 0.012436062 0.023283329 0.034328453 0.013395004 0.0136258835 0.012598919
0.027931608 0.0061048022 0.02052774 0.013100724 0.021955486 0.01914627 0.046566263 0.011778263
0.03032345 0.026039533 0.106701195 0.01391735 0.007116574 0.0073341597 0.049986597 0.010787458
0.009914307 0.043325294 0.008144147 0.022245454 0.050270036 0.011200553 0.02370905 0.0044642286
00000000: 7dc1 9c3c 3047 053c 0551 6a3c 90a7 b43b
00000010: 5edd 863c eb0f d83d 3771 a63c 77ca 073d
00000020: d2ab 7b3b e34a 413b 0298 893b 1646 633c
00000030: 7580 023c 3cb7 633d 285f d43c f41b b93c
00000040: 9959 4e3c c498 b83b 0173 8f3c 26ba 4d3d
00000050: 685b b63c b8ab da3b 8975 e43b 6507 3c3d
00000060: 5d17 ac3c 21ad 703c 82bc a23c b7ee 193c
00000070: 4bbe 533d 50ac e23c 6a9a 263d 5bf7 823c
00000080: 3bc4 993d 6a13 893c 790c 043c e120 fa3d
00000090: 6d4c 163d 5926 703c 5c7a 803d 9e97 113d
000000a0: f517 c83c b22b 063c 466e 943c 0fc4 403d
000000b0: 10f7 953b f5f7 083e 57b4 3d3b 406c 943b
000000c0: cb22 233d 20d1 7d3d fbf8 a93c a84f 763c
000000d0: 9d28 8e3c 9cff ea3b 14bb 903c fa9e f13b
000000e0: 036c 993c acc6 743d b950 163d 925b 473d
000000f0: 579d ef3b f1d8 bc3d eda0 763c c1e8 6b3c
00000100: 0e51 ed3c a2a1 373c 25c4 7d3d 1f51 fb3c
00000110: 5783 853d 3926 013d 8ce4 e63b 36da 393c
00000120: 9367 bd3c 9a81 923c 713d ef3c 8c6e 083c
00000130: 1256 8d3c d784 6b3c c36a e03c cae6 8b3c
00000140: ac22 0a3c 4b00 163c b4e9 3a3d 5404 813d
00000150: df1e 993d 01f2 b13d c19a 153e de09 053d
00000160: 6ef8 0c3d ed1f 063c e368 593d 12e2 023d
00000170: fd4c 153c 729f 383c 90ed a83c 6a78 373c
00000180: 8070 873c 5aec af3c a0c0 4b3c aebc be3c
00000190: fe9b 0c3d b876 5b3c 193f 5f3c b26b 4e3c
000001a0: d4d0 e43c cb0a c83b ca29 a83c 6ba4 563c
000001b0: fedb b33c a3d8 9c3c 44bc 3e3d 9ef9 403c
000001c0: e268 f83c dc50 d53c 2886 da3d 9905 643c
000001d0: 2632 e93b 6453 f03b bfbe 4c3d e1bd 303c
000001e0: 9e6f 223c dd75 313d 076f 053c 193c b63c
000001f0: f4e7 4d3d 8682 373c 7b39 c23c aa48 923b

fc1.weight f4 [64, 768]
0.076884024 0.020174805 0.07511173 0.035003822 0.21996884 0.23140332 0.26021415 0.19077015
0.18551348 0.09360758 0.15582837 0.07758677 0.096797034 0.047752917 -0.026241407 -0.018209731
0.034391396 -0.024897158 0.073448345 0.11990066 0.17679863 0.16232929 0.2048839 0.21965899
0.15953802 0.121668376 0.12448538 0.11557978 0.10499429 0.015574994 -0.012391643 -0.03662336
0.09299358 0.08879262 0.122839876 0.18704613 0.19346678 0.063414544 0.16575234 0.16324003
0.16321108 0.078981824 0.08512449 0.11268648 0.07195218 0.048517745 0.03385824 -0.025449293
0.07766074 0.15711209 0.12544309 0.20567036 0.1172346 0.07091839 0.18198071 0.14189631
0.19055822 0.04466159 0.05558856 0.119102925 0.06572015 0.04282293 0.021553496 0.013071711
0.008244621 0.06858824 0.09414231 0.13111052 0.09307683 0.044150617 0.114637874 0.13310574
-0.04835599 0.011753078 0.06510645 0.069250055 0.008959051 -0.051339343 -0.077005416 -0.024636382
0.0067624035 0.055461153 0.09151814 0.12235995 0.0017627992 0.054258205 0.088014245 0.09113711
-0.060921654 0.008393438 0.038327202 0.011382306 -0.12338943 0.07310759 -0.057036214 -0.035625875
0.103646524 0.068984784 0.108727336 0.14736438 0.060778517 0.07478817 0.060098033 0.036944907
-0.020720981 -0.114906654 -0.06709787 -0.060454 -0.034299955 0.0513148 0.047970712 -0.08803338
0.1924698 0.13578726 0.118490204 0.18531813 0.17135978 0.15247491 0.17505768 0.119376
0.09449629 -0.03588066 -0.020673545 0.026924215 -0.004251717 0.07532974 0.039247215 0.04531517
0.04055038 0.021935703 0.08526679 0.13957694 0.128508 0.021937687 0.011732837 0.06951905
0.02681807 -0.07506419 -0.017360162 -0.0691619 -0.04895167 0.031325698 -0.005398931 0.080076516
-0.0461546 -0.03453096 0.007843956 0.030393928 0.053620707 0.05337873 0.026997093 -0.022857713
-0.07061514 -0.0635168 -0.05539801 -0.10607004 -0.08449896 -0.0142368935 -0.024489636 -0.054845173
0.022520958 0.08147365 -0.0011234356 -0.025977535 0.047988117 0.0127622895 0.0056044017 0.0073102936
-0.003903242 0.0102577135 0.022661494 -0.11823535 -0.13924061 -0.115071446 -0.061332986 -0.12276357
0.04755465 -0.0579985 -0.0015863166 -0.0096128145 -0.006138666 -0.046559706 0.009447412 -0.12365333
-0.07233202 0.044751957 0.0047113085 0.007122847 0.020076042 -0.006962496 -0.037788272 -0.060112208
0.029249921 0.038818486 -0.00961323 -0.024916738 -0.0016321545 0.0019965002 0.03473379 -0.03174316
-0.06578166 0.022268651 -0.002709956 0.03691762 0.04977446 0.07677274 0.121155426 0.14151835
0.06231129 0.055597544 0.045185786 -0.0116746435 -0.033352118 -0.03338803 0.01432979 0.071716085
0.04956955 -0.015069053 0.0388039 -0.019841453 0.0527 0.094738565 0.06128539 0.18327485
0.09230998 0.04404707 -0.010215418 -0.037284367 0.0060807182 0.10367394 0.068100065 0.09116446
0.052646484 0.109276034 0.063782044 0.061797213 -0.027624313 0.04014519 0.050984956 0.024547054
0.085512936 0.047499884 0.034629546 0.111141406 0.072988056 0.12313662 0.13500154 0.12632099
0.121390834 0.041893523 0.12272941 0.0994384 -0.16677688 -0.06956824 0.0052567935 0.018074261
00000000: 5f75 9d3d a245 a53c 2ed4 993d 2b60 0f3d
00000010: 833f 613e fef4 6c3e ca3a 853e 4059 433e
00000020: 3ff7 3d3e 55b5 bf3d 7991 1f3e d0e5 9e3d
00000030: 863d c63d 9098 433d 38f8 d6bc 932c 95bc
00000040: fedd 0c3d 20f5 cbbc 166c 963d 7a8e f53d
00000050: b30a 353e a639 263e 16cd 513e 49ee 603e
00000060: ef5d 233e 452d f93d 31f2 fe3d 17b5 ec3d
00000070: 3f07 d73d 422e 7f3c 5106 4bbc 6002 16bd
00000080: 6b73 be3d e8d8 b53d 7993 fb3d 0589 3f3e
00000090: 281c 463e 7cdf 813d fbba 293e 6528 273e
000000a0: ce20 273e 39c1 a13d c055 ae3d 2bc8 e63d
000000b0: aa5b 933d 8bba 463d f0ae 0a3d 097b d0bc
000000c0: 980c 9f3d fee1 203e 2774 003e 409b 523e
000000d0: b218 f03d a93d 913d 2759 3a3e 444d 113e
000000e0: b221 433e 12ef 363d d4b0 633d 3cec f33d
000000f0: 4998 863d 1967 2f3d f590 b03c bb2a 563c
00000100: 7214 073c fe77 8c3d afcd c03d d641 063e
00000110: 119f be3d 47d7 343d 43c7 ea3d df4c 083e
00000120: ee10 46bd fb8f 403c 8856 853d f9d2 8d3d
00000130: fcc8 123c 3449 52bd 04b5 9dbd 3dd2 c9bc
00000140: 2797 dd3b 3c2b 633d dd6d bb3d da97 fa3d
00000150: ba0d e73a da3d 5e3d d040 b43d 18a6 ba3d
00000160: fc88 79bd a184 093c fcfc 1c3d da7c 3a3c
00000170: 99b3 fcbd 6fb9 953d ce9e 69bd 70ec 11bd
00000180: a144 d43d e547 8d3d 70ac de3d b0e6 163e
00000190: e5f2 783d 8a2a 993d 5b29 763d 8b53 173d
000001a0: 0cbf a9bc 2e54 ebbd 9c6a 89bd 9d9e 77bd
000001b0: 1c7e 0cbd 782f 523d f07c 443d d84a b4bd
000001c0: ce16 453e d10b 0b3e feaa f23d 09c4 3d3e
000001d0: f078 2f3e 6222 1c3e 5242 333e 677b f43d
000001e0: 4587 c13d 99f7 12bd 915b a9bc 2c90 dc3c
000001f0: fd51 8bbb 7b46 9a3d b0c1 203d 669c 393d
00000200: 2818 263d 81b2 b33c 5ba0 ae3d 42ed 0e3e
00000210: 9a97 033e aab6 b33c 163b 403c 0160 8e3d
00000220: 92b1 db3c 41bb 99bd e636 8ebc c1a4 8dbd
00000230: 8c81 48bd 604f 003d 84e9 b0bb 28ff a33d
00000240: 9b0c 3dbd 5670 0dbd f083 003c b0fc f83c
00000250: 63a1 5b3d a8a3 5a3d 0229 dd3c 1940 bbbc
00000260: ac9e 90bd 1915 82bd 06e9 62bd 403b d9bd
00000270: ca0d adbd dc41 69bc 7d9e c8bc 55a5 60bd
00000280: df7d b83c a8db a63d 3e40 93ba d7ce d4bc
00000290: 308f 443d ec18 513c 21a5 b73b 308b ef3b
000002a0: 89cd 7fbb f80f 283c 99a4 b93c 6025 f2bd
000002b0: 1795 0ebe 94aa ebbd 4c38 7bbd 776b fbbd
000002c0: aac8 423d d68f 6dbd f4eb cfba 117f 1dbc
000002d0: dd26 c9bb 64b5 3ebd 51c9 1a3c f53d fdbd
000002e0: cf22 94bd d44d 373d 5261 9a3b c566 e93b
000002f0: 8376 a43c a625 e4bb e0c7 1abd 3838 76bd
00000300: 889d ef3c 2200 1f3d cf80 1dbc 301e ccbc
00000310: 04ee d5ba b7d7 023b 0545 0e3d 1e05 02bd
00000320: 89b8 86bd bf6c b63c 8499 31bb ee36 173d
00000330: 4ee0 4b3d 073b 9d3d 5620 f83d 30ea 103e
00000340: 203a 7f3d 40ba 633d bb14 393d 0147 3fbc
00000350: 3b9c 08bd e3c1 08bd 7fc7 6a3c e2df 923d
00000360: 7109 4b3d 30e4 76bc d7f0 1e3d 8b8a a2bc
00000370: f5db 573d 4b06 c23d 6406 7b3d 67ac 3b3e
00000380: 040d bd3d b36a 343d 925e 27bc 7eb7 18bd
00000390: c340 c73b 0153 d43d 0c78 8b3d 6fb4 ba3d
000003a0: d7a3 573d 1dcc df3d 29a0 823d 131f 7d3d
000003b0: 624c e2bc 486f 243d 9ad5 503d e716 c93c
000003c0: 6821 af3d 3d8f 423d b6d7 0d3d 1b9e e33d
000003d0: c37a 953d 0d2f fc3d d83d 0a3e 4a5a 013e
000003e0: c29b f83d 8b98 2b3d 8f59 fb3d 5ca6 cb3d
000003f0: 8fc7 2abe cb79 8ebd 2e41 ac3b 7910 943c

fc1.bias f4 [64]
0.059154198 -0.2977404 0.17895561 -0.08988159 0.2013884 -0.2447472 -0.2729315 -0.23561226
-0.15703611 0.46655267 -0.08268441 0.1519505 0.095403135 -0.15279438 -0.022601878 0.15627034
0.08944068 -0.08300348 0.023084491 -0.16590515 0.4145801 0.59555906 -0.09985154 -0.0063372552
-0.0875902 -0.13728917 -0.01856743 0.1371179 -0.07323336 0.02175041 0.15923516 0.31611663
0.21532454 -0.39651504 0.72737426 -0.28511 -0.045048032 -0.28832608 0.12612794 0.12697855
0.06881356 0.31447536 -0.13167512 -0.1457182 -0.33889437 -0.2610686 -0.15477887 -0.18392898
-0.06562479 -0.04205142 -0.07112199 0.42106935 -0.29343334 0.00083982106 -0.21569602 0.39092004
-0.1345028 -0.03763281 -0.03483015 -0.044460066 0.18354918 -0.07283423 0.5848026 0.20155528
00000000: ac4b 723d 6e71 98be 2440 373e d713 b8bd
00000010: c338 4e3e 039f 7abe adbd 8bbe 5744 71be
00000020: 13ce 20be fedf ee3e 7256 a9bd e998 1b3e
00000030: b862 c33d 2176 1cbe 9327 b9bc 5505 203e
00000040: ad2c b73d bbfd a9bd b01b bd3c 0ae3 29be
00000050: d843 d43e 8f76 183f f77e ccbd c0a8 cfbb
00000060: 7e62 b3bd 8895 0cbe b91a 98bc a368 0c3e
00000070: 5ffb 95bd ea2d b23c 8b0e 233e 0ada a13e
00000080: 097e 5c3e 0504 cbbe 3335 3a3f f0f9 91be
00000090: 4984 38bd 7a9f 93be af27 013e aa06 023e
000000a0: 20ee 8c3d ea02 a13e d8d5 06be 2737 15be
000000b0: 9083 adbe c9aa 85be 5a7e 1ebe e157 3cbe
000000c0: 4a66 86bd 1c3e 2cbd 68a8 91bd 6796 d73e
000000d0: e53c 96be 7027 5c3a 6bdf 5cbe ac26 c83e
000000e0: 1abb 09be dd24 1abd 0faa 0ebd c21b 36bd
000000f0: 51f4 3b3e 1d2a 95bd a0b5 153f 8264 4e3e

fc2.weight f4 [64, 64]
0.008415824 -0.10098723 -0.07629602 -0.110952266 -0.10547215 -0.024141235 -0.021521494 0.11586002
-0.004760238 -0.025475891 0.031593096 0.0039704777 -0.036287118 -0.22016774 -0.09501424 -0.12459278
-0.16768804 -0.052231517 -0.23774356 -0.064675145 -0.18526381 0.056334026 0.014438062 -0.07511185
0.0032540374 0.092110455 -0.012956778 0.05256596 0.01976393 0.13097452 -0.10776935 0.053574868
0.055010565 0.1337083 0.0013262546 0.13374415 0.0057654795 -0.14043047 0.095391825 -0.21988086
0.013831866 -0.0032952523 -0.20113787 -0.07119021 -0.17674614 0.05230915 -0.08202592 -0.007449793
-0.13847299 -0.34900668 -0.034804337 -0.0680724 -0.09386614 0.09067895 -0.09493892 -0.042098407
0.044818345 0.0690719 -0.27907154 0.019158777 0.07616397 -0.022575017 0.04849344 0.10882549
0.01469377 -0.177563 -0.08370428 -0.03352669 0.12515178 -0.0040709814 -0.022743091 0.041212365
-0.06683235 -0.19212124 -0.19204555 -0.009543383 0.042385563 0.030964408 -0.08844852 -0.07759781
-0.12016496 0.16359122 -0.08957051 -0.108424805 -0.21669719 0.08361825 0.024228849 -0.2210433
-0.095018335 0.005381398 0.049268432 -0.16532855 -0.07283073 -0.20412296 0.009678187 0.022024108
-0.11434659 -0.10119914 -0.2255045 -0.13235605 0.061740283 -0.011434603 -0.21139896 0.049531586
0.045978725 -0.16066116 -0.23404436 -0.10501553 0.022481147 -0.07739202 -0.09252304 0.18446289
-0.20749553 -0.12674831 -0.066664755 0.058838524 0.06028096 -0.068697765 0.030402223 -0.13059422
-0.09737974 -0.04405948 0.09199944 -0.14326955 0.022259856 0.06789604 0.056954 0.07676534
-0.04344877 -0.05765458 -0.050462082 0.017981593 0.015620699 -0.14665577 -0.080367126 0.04730452
-0.13566627 -0.03523608 -0.07742145 -0.10921548 -0.09649663 -0.12398289 -0.038814023 0.012492793
0.05872315 -0.13070866 0.04625985 -0.03827542 -0.09987036 -0.08126966 -0.07166488 -0.009714645
0.04559682 -0.058339957 -0.08978402 -0.08091327 -0.08866579 -0.06377931 -0.072772115 0.0015151642
-0.13233235 -0.009310692 0.04136401 -0.041600347 -0.06327783 -0.018706419 -0.083518066 0.030755566
0.025667166 -0.15220447 -0.15982684 -0.09051319 -0.020954438 -0.007948236 -0.1194256 -0.04982841
-0.09522652 0.011782917 -0.1133823 0.068831265 0.106331736 -0.12456709 -0.072463594 -0.015314489
0.048663057 -0.039262567 -0.12828836 -0.11928805 -0.117123686 -0.024217421 -0.107440375 -0.04145001
0.0013760368 0.0827908 0.04369865 0.13854882 0.079085 0.15285458 0.0848808 -0.18226269
0.15746854 0.12353275 -0.038191367 -0.056024782 -0.08694452 -0.041207038 0.00440645 -0.054957226
-0.22412066 0.13643457 -0.10629522 -0.08761476 -0.024809813 -0.08137871 0.123602316 -0.107164405
-0.08570652 -0.16951564 0.10300036 0.12763464 -0.119299546 0.007001277 0.06364355 -0.015250171
0.051631726 -0.02671723 -0.1219865 0.07004397 0.026633747 0.0037442734 0.04681217 0.010324341
0.059241254 -0.002467349 -0.15514424 0.056418974 0.059241325 -0.025002236 0.16565144 0.07302947
-0.05926126 -0.12545894 0.053115338 0.00800476 0.03287805 0.052358054 -0.044819113 0.18137842
-0.027179115 -0.059859622 -0.111950666 0.10666684 0.10053222 -0.14729789 -0.11165905 0.045559928
00000000: 86e2 093c 65d2 cebd 1641 9cbd f13a e3bd
00000010: c801 d8bd d7c3 c5bc d84d b0bc 0548 ed3d
00000020: c5fb 9bbb d1b2 d0bc c367 013d c81a 823b
00000030: cda1 14bd a773 61be d396 c2bd 802a ffbd
00000040: 6ab6 2bbe b7f0 55bd 0c73 73be 6774 84bd
00000050: ccb5 3dbe 82be 663d 9f8d 6c3c 3ed4 99bd
00000060: b041 553b 68a4 bc3d aa48 54bc 674f 573d
00000070: f7e7 a13c 2f1e 063e 2db6 dcbd 5271 5b3d
00000080: c252 613d d4ea 083e b8d5 ad3a 3af4 083e
00000090: 59ec bc3b 01cd 0fbe ca5c c33d 7328 61be
000000a0: 0d9f 623c 29f5 57bb 16f7 4dbe 2ccc 91bd
000000b0: f1fc 34be 1f42 563d 35fd a7bd 651d f4bb
000000c0: ddcb 0dbe 01b1 b2be fe8e 0ebd 8b69 8bbd
000000d0: e43c c0bd e3b5 b93d 566f c2bd 616f 2cbd
000000e0: 7193 373d 9175 8d3d 77e2 8ebe def2 9c3c
000000f0: dbfb 9b3d 3eef b8bc 0fa1 463d e6df de3d
00000100: 23be 703c 13d3 35be 266d abbd 4853 09bd
00000110: ca27 003e de65 85bb b84f babc 4cce 283d
00000120: 66df 88bd 6ebb 44be 97a7 44be d95b 1cbc
00000130: 7c9c 2d3d 12a9 fd3c 7f24 b5bd 9aeb 9ebd
00000140: 0c19 f6bd 7584 273e be70 b7bd d30d debd
00000150: dee5 5dbe 0c40 ab3d 947b c63c 2d59 62be
00000160: f998 c2bd 7056 b03b b2cd 493d e34b 29be
00000170: 4728 95bd 9c05 51be 4291 1e3c e76b b43c
00000180: 8c2e eabd 7f41 cfbd a7ea 66be 5888 07be
00000190: 61e3 7c3d 3358 3bbc f878 58be a2e1 4a3d
000001a0: 3054 3c3d 5c84 24be 53a9 6fbe 6212 d7bd
000001b0: 622a b83c b57f 9ebd b87c bdbd d7e3 3c3e
000001c0: b579 54be 4fca 01be 8887 88bd aa00 713d
000001d0: 2be9 763d 6ab1 8cbd 150e f93c 7eba 05be
000001e0: 076f c7bd b777 34bd 346a bc3d 41b5 12be
000001f0: 4d5a b63c 140d 8b3d 9948 693d 2637 9d3d
00000200: 56f7 31bd 3527 6cbd 54b1 4ebd 224e 933c
00000210: f6ed 7f3c ee2c 16be 8597 a4bd 62c2 413d
00000220: 19ec 0abe b553 10bd 238f 9ebd 5eac dfbd
00000230: 06a0 c5bd beea fdbd 74fb 1ebd 92ae 4c3c
00000240: b087 703d 7ed8 05be f87a 3d3d b0c6 1cbd
00000250: d588 ccbd b570 a6bd 09c5 92bd 2d2a 1fbc
00000260: bbc3 3a3d e1f5 6ebd afe0 b7bd dbb5 a5bd
00000270: 6996 b5bd ba9e 82bd 8c09 95bd 7998 c63a
00000280: 2282 07be df8b 18bc 4f6d 293d 2065 2abd
00000290: cf97 81bd 343e 99bc 850b abbd 19f3 fb3c
000002a0: f343 d23c 7ddb 1bbe a6a9 23be fb5e b9bd
000002b0: a4a8 abbc 5139 02bc 6995 f4bd e018 4cbd
000002c0: 1f06 c3bd 230d 413c fb34 e8bd 68f7 8c3d
000002d0: 74c4 d93d 081d ffbd cb67 94bd 9fe9 7abc
000002e0: ea52 473d c9d1 20bd 065e 03be 4b4d f4bd
000002f0: 8bde efbd 9d63 c6bc b309 dcbd 7cc7 29bd
00000300: 225c b43a 398e a93d 5bfd 323d bedf 0d3e
00000310: 51f7 a13d e985 1c3e fcd5 ad3d 12a3 3abe
00000320: 6f3f 213e bdfe fc3d 8d6e 1cbd 3e7a 65bd
00000330: f80f b2bd b6c8 28bd fb63 903b d41a 61bd
00000340: e37f 65be 81b5 0b3e 4fb1 d9bd 5e6f b3bd
00000350: f33d cbbc e2a9 a6bd 3623 fd3d 0379 dbbd
00000360: e686 afbd 8295 2dbe daf1 d23d a8b2 023e
00000370: 5253 f4bd f86a e53b 8d57 823d dadb 79bc
00000380: ca7b 533d 18de dabc 0fd4 f9bd 3773 8f3d
00000390: 042f da3c 7c62 753b 1ebe 3f3d 6d27 293c
000003a0: f5a6 723d 3fb3 21bb 22de 1ebe 9517 673d
000003b0: 08a7 723d 7dd1 ccbc 88a0 293e 7a90 953d
000003c0: efbb 72bd 4f78 00be 788f 593d 6626 033c
000003d0: 22ab 063d 6675 563d 3f94 37bd 44bb 393e
000003e0: bca6 debc 5d2f 75bd 6446 e5bd 2574 da3d
000003f0: d6e3 cd3d 42d5 16be 80ad e4bd 0c9d 3a3d

fc2.bias f4 [64]
0.06644422 -0.07672224 -0.050920356 0.35147038 -0.16445372 0.065196045 0.07028911 -0.086443715
0.3052723 0.13699077 -0.22827752 0.27072555 0.25460067 0.45493174 0.011701109 0.05851981
0.49765378 0.15502302 0.044157173 0.41375226 -0.1882131 -0.08730421 -0.1866258 -0.050399497
0.5885786 0.21165738 -0.07435042 0.24541713 0.23394689 0.022404924 0.4310216 0.2713857
0.20126817 -0.12375444 0.38898367 0.08895481 0.07610976 0.008864756 0.47929868 0.6905062
0.5671328 0.21430679 0.04480341 -0.18284158 0.282705 0.31127748 0.658388 0.48177552
0.17747962 0.4389006 0.48202986 -0.12643684 0.29345265 0.108237065 0.16267113 0.027631052
0.75660264 0.491746 -0.017470399 0.06756758 0.24454689 0.011327388 0.28619054 0.39519468
00000000: e813 883d 8d20 9dbd dd91 50bd edf3 b33e
00000010: 8e66 28be 8185 853d bdf3 8f3d 6709 b1bd
00000020: a74c 9c3e 4f47 0c3e 95c1 69be 8a9c 8a3e
00000030: 055b 823e d0ec e83e 02b6 3f3c 78b2 6f3d
00000040: 7acc fe3e 5bbe 1e3e 27de 343d 56d7 d33e
00000050: efba 40be 8dcc b2bd d51a 3fbe b46f 4ebd
00000060: 16ad 163f b6bc 583e 0845 98bd a14e 7b3e
00000070: c68f 6f3e 888a b73c ddae dc3e 11f3 8a3e
00000080: 3e19 4e3e f872 fdbd de28 c73e f02d b63d
00000090: 6fdf 9b3d 7b3d 113c a366 f53e 04c5 303f
000000a0: 9d2f 113f 3d73 5b3e c883 373d d33a 3bbe
000000b0: b6be 903e c35f 9f3e 1e8c 283f 48ab f63e
000000c0: 38bd 353e 94b7 e03e 9ecc f63e a978 01be
000000d0: 6d3f 963e 65ab dd3d 4393 263e 845a e23c
000000e0: b6b0 413f 22c6 fb3e 151e 8fbc df60 8a3d
000000f0: 806a 7a3e 8296 393c 9187 923e f556 ca3e

fc3.weight f4 [24, 64]
-0.043246243 0.030359223 -0.077782296 -0.07312079 -0.15532464 -0.06734809 0.011808636 -0.25782633
-0.012258987 -0.2044947 -0.20315237 0.08997242 0.04322149 -0.21613802 -0.095688514 -9.445372e-05
-0.049982198 -0.16061415 -0.14603046 -0.07961105 -0.011354671 -0.17053606 -0.0006251439 -0.20466179
-0.0856721 0.059543245 -0.04745459 -0.22353338 -0.05032721 -0.12865703 0.059889734 -0.029058682
-0.011175512 -0.14072153 0.031395573 -0.031444803 -0.098480344 -0.009259948 -0.12288585 -0.047724847
-0.041740783 -0.15076375 0.06638416 -0.14190213 -0.0795329 0.037733875 -0.07885514 0.036511164
-0.12826385 -0.08439151 -0.01034968 -0.15112069 -0.13072345 -0.1099547 -0.043046247 -0.0676106
0.027560534 -0.075177595 -0.042387582 -0.24415721 0.10507761 -0.5550482 -0.23466356 0.08898824
0.010641488 -0.11964631 -0.018412536 0.08012128 -0.18718481 -0.025062317 0.052285075 -0.17654721
-0.029246068 0.074642636 -0.30959097 -0.0059877555 -0.13430972 -0.0145835625 0.043442924 0.10448919
0.080331236 -0.041173257 0.022105627 0.03024001 -0.11800389 -0.1607122 -0.16053948 -0.09553695
0.0128451735 -0.054728806 -0.13856825 0.08343518 -0.0326868 -0.024586475 0.10579545 0.0033269876
0.014695898 -0.050073512 0.019887194 0.11595475 -0.0020676753 -0.33680353 0.0050108964 0.10867446
-0.007085061 -0.023846708 0.058981203 -0.06443776 0.043267105 0.026341854 0.045394905 -0.005431517
-0.10829949 0.14196421 0.0054972246 -0.036866825 -0.06930447 -0.031324204 -0.11461275 -0.09661757
0.034931637 0.03385247 -0.07697906 -0.06368546 0.101398475 -0.13236226 0.08488301 -0.021549737
-0.04798127 -0.1307455 -0.048037324 -0.06558387 -0.5088878 -0.06528462 -0.08251945 -0.28958023
-0.22328123 -0.12607275 -0.5179369 -0.07936022 -0.044504896 -0.19852693 -0.06884008 -0.09506462
-0.15105155 0.0069702337 -0.2379079 -0.08396152 -0.1359338 -0.16884588 -0.8126135 -0.15150858
-0.026926577 -0.29056367 -0.076820605 -0.064174265 -0.2404968 -0.32845053 -0.14366277 0.036705405
0.15104692 -0.14953709 -0.16783985 -0.013967852 -0.2652286 -0.43195423 -0.3489816 -0.15701881
-0.20663533 -0.03437025 -0.24481164 -0.42892638 -0.003942974 -0.030185886 -0.10073546 -0.09591201
-0.36301515 0.08140021 -0.15925989 0.0099527715 0.0951115 -0.041915156 -0.35530034 -0.07300872
-0.0845582 -0.15516889 -0.15797073 -0.17364857 -0.045315396 -0.31640363 0.19162455 -0.21459803
-0.08820193 -0.3774562 -0.1312294 -0.41169503 -0.15360115 -0.45614383 -0.13478327 -0.46470383
-0.6151687 -0.662277 -0.30035987 -0.95623964 -0.6225879 -1.0515883 -0.7221 -0.19450103
-0.64401895 -0.34826195 -0.50737196 -1.026558 0.0053058397 -0.20276737 -0.12179312 -0.14625716
-0.30714437 -0.40967822 -0.3386874 -0.45519367 -0.52866143 -0.23228161 -0.873129 -0.48162732
-0.31031084 -0.07826179 -0.6342025 -0.297008 -0.22468157 -0.12854904 -1.0361146 -0.980868
-0.83151394 -0.28501207 -0.56255233 -0.08690879 -0.46859792 -1.0945791 -0.8773726 -0.7442211
-0.83685 -1.4165033 -0.5115466 -0.041858263 -0.5513222 -0.27529648 -0.89802384 -0.15933691
-0.77701133 -0.759562 -0.4972835 -0.74835795 -0.24869144 -0.2073993 -0.6679409 -1.0245397
00000000: f922 31bd e8b3 f83c 534c 9fbd 5ac0 95bd
00000010: 6c0d 1fbe cced 89bd 0279 413c d001 84be
00000020: ebd9 48bc 0f67 51be 2d07 50be 7643 b83d
00000030: 0409 313d 4953 5dbe 57f8 c3bd 7415 c6b8
00000040: 22ba 4cbd 0978 24be 0289 15be 1e0b a3bd
00000050: f108 3abc 01a1 2ebe b2e0 23ba dc92 51be
00000060: db74 afbd 9ee3 733d bf5f 42bd efe5 64be
00000070: e823 4ebd abbe 03be f04e 753d 790c eebc
00000080: 7f19 37bc 4e19 10be a598 003d 44cc 00bd
00000090: 10b0 c9bd 09b7 17bc 94ab fbbd 217b 43bd
000000a0: 62f8 2abd d061 1abe 6bf4 873d cb4e 11be
000000b0: 25e2 a2bd d68e 1a3d ce7e a1bd bb8c 153d
000000c0: 9957 03be 75d5 acbd b491 29bc 62bf 1abe
000000d0: 5edc 05be ee2f e1bd 4351 30bd 6d77 8abd
000000e0: a1c6 e13c b6f6 99bd 9a9e 2dbd 5904 7abe
000000f0: ee32 d73d a417 0ebf a54b 70be 773f b63d
00000100: a359 2e3c 2009 f5bd e3d5 96bc a016 a43d
00000110: 60ad 3fbe 7d4f cdbc e028 563d cbc8 34be
00000120: 7395 efbc 3dde 983d b582 9ebe ef34 c4bb
00000130: 7d88 09be e5ef 6ebc 35f1 313d 6efe d53d
00000140: b484 a43d 4aa5 28bd dc16 b53c e6b9 f73c
00000150: 06ac f1bd bd91 24be 7664 24be e0a8 c3bd
00000160: 9074 523c 502b 60bd d6e4 0dbe 10e0 aa3d
00000170: 98e2 05bd 9369 c9bc 49ab d83d 9709 5a3b
00000180: 10c7 703c e219 4dbd 78ea a23c af79 ed3d
00000190: d681 07bb 8371 acbe 7232 a43b b790 de3d
000001a0: cd29 e8bb 2c5a c3bc 4696 713d f2f7 83bd
000001b0: d938 313d dfca d73c 02f0 393d defa b1bb
000001c0: 1fcc ddbd 115f 113e 1022 b43b ab01 17bd
000001d0: 81ef 8dbd cf4d 00bd 17ba eabd 6fdf c5bd
000001e0: 7a14 0f3d e3a8 0a3d 33a7 9dbd 866d 82bd
000001f0: 01aa cf3d f989 07be 25d7 ad3d 1389 b0bc
00000200: 0288 44bd 26e2 05be c9c2 44bd d650 86bd
00000210: 7946 02bf f1b3 85bd f5ff a8bd dc43 94be
00000220: d6a3 64be 3719 01be 8397 04bf 9c87 a2bd
00000230: c44a 36bd a54a 4bbe 07fc 8cbd 3db1 c2bd
00000240: 42ad 1abe 8f66 e43b 219e 73be 04f4 abbd
00000250: 3b32 0bbe efe5 2cbe 7007 50bf 1125 1bbe
00000260: 2095 dcbc c3c4 94be 1f54 9dbd cc6d 83bd
00000270: cb44 76be ab2a a8be 551c 13be 6858 163d
00000280: 0bac 1a3e 4020 19be 36de 2bbe 6bd9 64bc
00000290: 0bcc 87be 1b29 ddbe b7ad b2be 8ac9 20be
000002a0: 3698 53be d2c7 0cbd e7af 7abe 3d9c dbbe
000002b0: 1034 81bb 6448 f7bc 654e cebd 846d c4bd
000002c0: 1fdd b9be 27b5 a63d 0615 23be f310 233c
000002d0: d1c9 c23d 3aaf 2bbd ede9 b5be 9985 95bd
000002e0: d92c adbd 98e4 1ebe 14c3 21be eed0 31be
000002f0: a39c 39bd a8ff a1be 3a39 443e 96bf 5bbe
00000300: 37a3 b4bd f041 c1be 0061 06be b1c9 d2be
00000310: 9f49 1dbe af8b e9be a004 0abe a9ed edbe
00000320: b27b 1dbf fc8a 29bf c5c8 99be 1fcc 74bf
00000330: ec61 1fbf 729a 86bf 8cdb 38bf 472b 47be
00000340: 6dde 24bf 644f b2be 21e3 01bf 4166 83bf
00000350: 9cdc ad3b 40a2 4fbe ac6e f9bd 70c4 15be
00000360: 0742 9dbe 58c1 d1be 6f68 adbe 250f e9be
00000370: 5b56 07bf 3bdb 6dbe 6285 5fbf db97 f6be
00000380: 10e1 9ebe b847 a0bd 185b 22bf 6f11 98be
00000390: ed12 66be 5ca2 03be 679f 84bf 2a1a 7bbf
000003a0: 19de 54bf 1aed 91be 6e03 10bf 3cfd b1bd
000003b0: 11ec efbe 2b1b 8cbf 7e9b 60bf 4685 3ebf
000003c0: cd3b 56bf fb4f b5bf b8f4 02bf 9273 2bbd
000003d0: 7423 0dbf a9f3 8cbe e4e4 65bf 3729 23be
000003e0: 37ea 46bf a872 42bf f19b febe 6394 3fbf
000003f0: f8a8 7ebe 7b60 54be 2dfe 2abf 1e24 83bf

fc3.bias f4 [24]
-0.28076693 0.040498808 -0.41577622 -0.59425503 -0.12970953 -0.011236542 0.19619943 0.19211854
0.21225105 0.12950422 -0.32956013 -0.43141124 -0.23952979 0.078991026 -0.2250253 -0.42978272
-0.333186 -0.19966179 0.1797222 0.016613143 -0.57051444 -0.5483446 -0.28686628 -0.15322882
00000000: afc0 8fbe 14e2 253d 9fe0 d4be 1921 18bf
00000010: 93d2 04be 7919 38bc 81e8 483e b9ba 443e
00000020: 5758 593e c19c 043e 1bbc a8be efe1 dcbe
00000030: 4c47 75be 0cc6 a13d 086d 66be 7b0c dcbe
00000040: 5b97 aabe 2474 4cbe 1909 383e 4918 883c
00000050: 3c0d 12bf 5060 0cbf 23e0 92be 04e8 1cbe

exp_avg f4 [64, 768]
0.0014601552 0.0011526203 0.0010182582 0.0010739994 0.0011168361 0.0012206965 0.0009075046 0.0005870422
0.00025388456 0.00034757503 8.0601894e-05 8.283207e-06 -5.6040448e-05 0.00059024454 0.0006853152 0.00086786255
0.0012897744 0.001321338 0.0013526748 0.0013907552 0.0010151771 0.0011313014 0.0010253787 0.00061778066
0.00041588172 0.0003496922 0.00018326471 0.00022960007 0.0003610872 0.0010904678 0.0011091604 0.0010008027
0.0010699049 0.0012900874 0.0015221346 0.0013051383 0.000986324 0.0010622912 0.00094640924 0.0005942621
0.0006859165 0.00039805772 0.000192312 0.0004907851 0.0009030134 0.0011900607 0.0008062319 0.0009182871
0.0014244776 0.0012103483 0.001140463 0.001165192 0.0010685552 0.0006519986 0.0007447026 0.00035554531
0.0007274903 0.0006590014 0.0005537535 0.0006521507 0.00086897844 0.000918279 0.0009241733 0.0010412852
0.0015052174 0.0012919789 0.001088466 0.0008989937 0.000922742 0.0008419925 0.0007868801 0.00012794315
0.001095234 0.00094334467 0.0009969517 0.0009654336 0.0010355891 0.0011499774 0.001142029 0.0010488938
0.0009812444 0.001204982 0.0011676806 0.001068849 0.0009974249 0.0003119973 9.649599e-05 0.00022598996
0.00039164667 0.001009525 0.001063846 0.001260828 0.0008669723 0.00085170666 0.00078867737 0.0010741855
0.0003766235 0.00086979277 0.0011967713 0.0011445346 0.0012562603 0.0004673352 0.00044340556 0.0008948649
0.0005708991 0.000986157 0.0009072948 0.0009375789 0.0006526388 0.0007433074 0.0010496952 0.000823648
-0.0010512719 0.00038387888 0.0007123442 0.00031094975 0.0005509351 0.0009286921 0.0010610438 0.0006051096
0.0003934423 0.00019001402 0.00036363766 0.00046433436 0.0006473097 0.0009344147 0.0020719634 0.0013603658
-0.0016442465 -0.0008275912 -0.0021628519 -0.0019906182 -0.0016189619 -0.0006528032 -6.347829e-05 -0.00015292068
-0.0004557847 -0.00022810827 -0.00016811276 -8.249273e-05 -0.00036980514 -0.0003238765 0.0004957794 0.00045487136
-0.0018110315 -0.0019864936 -0.0020021563 -0.0012331774 -0.00084277586 -0.00027629547 -0.00068548025 -0.00032639402
-0.00040880893 -0.0002679084 -0.0004986907 -0.00045662554 -0.00054896926 -0.00052828935 -0.00026777823 0.0002993441
-0.0015381115 -0.0014074313 -0.001349126 -0.0007511886 -0.0010830736 -0.00068694085 -0.00027976785 -0.00029425818
-0.00023180983 -0.0012447427 -0.0010325551 6.3112835e-05 -0.00020935845 6.528493e-05 -0.00019002205 -0.0004101052
-0.0010734398 -0.0011255473 -0.000723229 -0.0006701748 -4.969931e-05 -0.00048714108 -0.00047704406 -0.00044786488
-0.00094407634 -0.0014437995 -0.0012572 -0.00035930326 0.00021063448 0.00037973354 0.00017254417 -8.065201e-05
-0.0009872171 -0.0015233321 -0.00065439305 -0.00051184674 0.0010403105 -0.00042779927 -0.00041431596 -0.00080917566
-0.0014228747 -0.001019501 -0.0012162084 -0.0014207534 -7.096389e-05 0.00020192703 0.00022952468 0.00019070196
-0.00041459902 -0.00023217697 -0.00052830594 -0.00039769066 -0.00019865492 -0.00031809072 -0.00048887584 -0.0015039712
-0.001455205 -0.0014255084 -0.0010856488 -0.001433415 -0.001244299 -8.743075e-05 -0.00039947056 5.0518058e-05
-0.00036070918 -0.00042415445 -0.0005733955 -0.0004179639 -0.00031781313 -0.0006276875 -0.0012755296 -0.0014062804
-0.0011019041 -0.0012030889 -0.001216072 -0.0014203817 -0.0017141722 -0.0011936205 -0.00097636227 -0.0007337029
-0.00037155568 -0.00046926632 -0.0005563053 -0.0004821353 -0.0005783173 -0.0011557693 -0.0014368842 -0.0008985609
-0.0008946465 -0.0010742785 -0.0013287516 -0.0012766722 -0.0017160773 -0.001502004 -0.0012845475 -0.0009899539
00000000: ae62 bf3a 8513 973a 1377 853a 71c5 8c3a
00000010: cd62 923a c7ff 9f3a 9ae5 6d3a bce3 193a
00000020: cf1b 8539 bb3a b639 d008 a938 1af8 0a37
00000030: f90c 6bb8 a4ba 1a3a b9a6 333a 4581 633a
00000040: a60d a93a bf30 ad3a 3c4c b13a 004a b63a
00000050: b10f 853a 2d48 943a 0066 863a 8ff2 213a
00000060: b30a da39 e556 b739 bf2a 4039 cdc0 7039
00000070: 4e50 bd39 07ee 8e3a 3f61 913a 5e2d 833a
00000080: 0d3c 8c3a 2618 a93a 5d82 c73a 2d11 ab3a
00000090: 8b47 813a 943c 8b3a 7318 783a 41c8 1b3a
000000a0: 14cf 333a 67b2 d039 5ca7 4939 08a8 003a
000000b0: 34b8 6c3a d0fb 9b3a 4f59 533a 34b9 703a
000000c0: 89b5 ba3a 8da4 9e3a 977b 953a 5bb9 983a
000000d0: c30e 8c3a e3ea 2a3a 2538 433a 7c68 ba39
000000e0: 0cb5 3e3a d6c0 2c3a c529 113a 18f5 2a3a
000000f0: 28cc 633a a9b8 703a 3844 723a bc7b 883a
00000100: b74a c53a 9e57 a93a dcaa 8e3a 72aa 6b3a
00000110: 2be4 713a 29b9 5c3a a146 4e3a 7a28 0639
00000120: f48d 8f3a ca4a 773a 26ac 823a 2715 7d3a
00000130: 9bbc 873a d7ba 963a 22b0 953a 097b 893a
00000140: 199d 803a 7df0 9d3a dc0c 993a 9f18 8c3a
00000150: 07bc 823a 9293 a339 e45d ca38 b8f7 6c39
00000160: ed55 cd39 0a52 843a c070 8b3a 5e42 a53a
00000170: 8745 633a 1145 5f3a 3ebf 4e3a afcb 8c3a
00000180: 8d75 c539 ce02 643a fbdc 9c3a 3504 963a
00000190: 1aa9 a43a ab04 f539 e378 e839 5e95 6a3a
000001a0: 64a8 153a f041 813a 86d7 6d3a dbc7 753a
000001b0: d915 2b3a 84da 423a ed95 893a 15ea 573a
000001c0: d5ca 89ba 5a43 c939 9cbc 3a3a f806 a339
000001d0: a16c 103a 7973 733a b912 8b3a 38a0 1e3a
000001e0: ee46 ce39 803e 4739 9fa6 be39 e771 f339
000001f0: 38b0 293a 82f3 743a c7c9 073b 4d4e b23a
00000200: c283 d7ba b5f2 58ba a2be 0dbb 0875 02bb
00000210: 5933 d4ba e220 2bba a61f 85b8 5559 20b9
00000220: 63f6 eeb9 5930 6fb9 6d47 30b9 f2ff acb8
00000230: 68e2 c1b9 f8cd a9b9 31f7 013a cd7b ee39
00000240: 2260 edba d52f 02bb 9c36 03bb 91a2 a1ba
00000250: bbed 5cba c0db 90b9 cdb1 33ba dd1f abb9
00000260: 6855 d6b9 0f76 8cb9 91ba 02ba 3e67 efb9
00000270: b4e8 0fba e67c 0aba 9664 8cb9 49f1 9c39
00000280: 759a c9ba 8f79 b8ba 28d5 b0ba 6aeb 44ba
00000290: ebf5 8dba d213 34ba cead 92b9 aa46 9ab9
000002a0: fa11 73b9 a226 a3ba cd56 87ba 725b 8438
000002b0: 3b87 5bb9 94e9 8838 a840 47b9 6303 d7b9
000002c0: aab2 8cba 1a87 93ba 1497 3dba abae 2fba
000002d0: 3a74 50b8 f866 ffb9 c51b fab9 68cf eab9
000002e0: e47b 77ba df3d bdba a2c8 a4ba de60 bcb9
000002f0: c3dd 5c39 f916 c739 f9ec 3439 b823 a9b8
00000300: 8265 81ba 8baa c7ba 938b 2bba 742d 06ba
00000310: 075b 883a 3f4a e0b9 8c38 d9b9 dc1e 54ba
00000320: c17f baba c7a0 85ba 2f69 9fba 9338 baba
00000330: 73d2 94b8 60bc 5339 90ac 7039 2bf7 4739
00000340: 8a5e d9b9 8874 73b9 037e 0aba 2381 d0b9
00000350: 064e 50b9 6ac5 a6b9 e727 00ba e620 c5ba
00000360: 94bc beba 20d8 baba 544c 8eba 6de1 bbba
00000370: bf17 a3ba 075b b7b8 0870 d1b9 5ae3 5338
00000380: 911d bdb9 0c61 deb9 ec4f 16ba 2a22 dbb9
00000390: 28a0 a6b9 658b 24ba ac2f a7ba f152 b8ba
000003a0: c46d 90ba f7b0 9dba 9b64 9fba 1a2c baba
000003b0: 13ae e0ba 4273 9cba 90f2 7fba f855 40ba
000003c0: 5ccd c2b9 dc07 f6b9 04d5 11ba 1bc7 fcb9
000003d0: 389a 17ba 2f7d 97ba d555 bcba 678d 6bba
000003e0: b686 6aba cece 8cba 8129 aeba 0356 a7ba
000003f0: 00ee e0ba e4de c4ba 435e a8ba 57c1 81ba
